Industrial_AI-main/projects/Project/New folder/Reinfore/RL-Project-master/trained_models/dueling_double_dqn/model_seed3.pt (torch, 151799 bytes, 9 tensors)

weight f4 [128, 23]
1.0368856 -0.18703094 -0.40879568 0.5832255 0.27120206 0.07232165 -0.040507294 -6.979794
0.6636148 -1.9821435 -0.630157 0.63428825 -0.29797107 -0.06520864 -0.32523325 0.058937356
-0.18246058 -0.02423727 0.0072882194 -0.8522579 -0.44866502 0.38102207 0.90042955 -1.4369617
-0.54055434 0.833799 -0.36460075 0.5990874 0.36496446 -0.327688 -0.057366107 -1.1912248
0.11726137 0.0015158424 -1.2392883 0.5589364 0.5870353 0.65280044 -2.1441927 -0.9926751
0.035779685 -0.6092984 -0.7377783 -0.045758326 0.41214728 0.015538233 -1.1699413 -0.1795474
-0.046557806 -0.17296515 -1.2918949 -1.9419836 1.8811275 1.2358086 -0.4811554 0.20588733
1.0649768 -0.49306834 -0.43101162 -0.078336336 0.77091056 0.25910807 -0.050740566 0.31404242
-0.18695335 -1.7036617 0.30108687 0.8403803 -1.452141 0.07407999 -0.2585895 0.032628074
-5.073928 0.03731256 -1.8166915 3.9311273 0.14816171 -0.014967289 0.9526463 0.23245752
0.09619539 -0.011654276 0.096134804 0.18647881 -0.083707325 -0.1747421 0.5601675 -1.400575
0.10593714 -0.027068157 -1.1185887 -0.35732076 0.4750956 0.01653565 0.053152062 0.7797958
-0.075011685 0.6126041 -0.22613563 0.7439132 -0.030947497 -0.08835674 0.057431493 -9.615728
-0.014742393 0.6470328 -1.1139603 0.33892247 -0.022912765 0.10464465 -0.6518899 0.80063814
0.16934046 0.030081907 -0.13486603 0.75841147 0.060859427 0.015443714 -0.6099101 -0.04401647
-0.5174522 0.5267452 0.17265166 0.08298892 0.486823 -0.58539754 -3.5220563 -0.12263401
0.65650934 0.31722534 -0.24514028 0.072378404 0.42638254 -0.09518568 0.283189 0.19307944
-0.47670344 -0.07984198 -0.83070105 -1.3653891 -1.1101887 -0.87439895 0.9535473 0.7939776
-0.1856234 -1.6326686 0.5721741 0.9495654 0.39956206 -0.9683507 -1.2241888 -0.5742379
0.65380114 -1.2343866 -0.32525355 -0.8841928 -0.42265022 -0.02237541 -0.48844597 -1.2758626
-0.04189387 -0.14599538 -0.91959447 0.54989654 -1.1454684 0.21876264 0.37044176 -0.069622464
-1.45572 -0.41772002 0.39308164 0.22985584 -0.20763732 0.10693196 -0.728028 0.0060821683
-0.5909931 -1.0128658 -0.00048925367 -0.16950794 -1.3817308 0.49583575 0.58106077 -0.12711057
-0.5123061 -0.9806893 -0.1945508 -1.013178 -0.8199784 0.3825312 0.91477007 -1.5063508
-0.62263215 0.27706537 -0.7235244 -2.4045858 0.46619654 -1.1156812 1.2772592 -0.9337405
-0.8324605 0.21430734 -0.6346986 -1.4787309 -0.82939076 -0.08165612 -1.6327401 -0.13253687
0.113139704 -0.003535566 -1.9605658 -0.96681976 2.865674 0.758126 -0.20684892 -0.28827026
-0.21037701 0.42715907 0.4099913 0.11334332 -0.29605252 0.16167367 -0.55064267 -0.434641
-1.3939662 -1.0231593 -0.16320978 0.26023036 -1.140256 0.34119967 -0.8627188 -2.3723657
0.4705217 -0.65207446 0.57731205 -0.8339428 0.5297365 -1.5279192 0.5713898 0.03758337
-0.04013548 -1.2471975 -0.7208672 1.0111411 -0.6243349 -1.0053928 -0.96119505 0.6757941
0.8068799 -1.1675558 -0.8870939 0.6129706 0.29742068 -1.5483141 0.28064698 2.5535955
00000000: abb8 843f 0a85 3fbe ab4d d1be 444e 153f
00000010: ffda 8a3e 601d 943d faea 25bd 795a dfc0
00000020: a9e2 293f e1b6 fdbf f851 21bf b760 223f
00000030: aa8f 98be 1c8c 85bd f984 a6be 4c68 713d
00000040: f2d6 3abe 3d8d c6bc 04d2 ee3b 932d 5abf
00000050: 6cb7 e5be 5315 c33e 8d82 663f 5cee b7bf
00000060: c561 0abf da73 553f f3ac babe cb5d 193f
00000070: 9fdc ba3e b9c6 a7be b9f8 6abd 0e7a 98bf
00000080: bb26 f03d 3baf c63a 00a1 9ebf 7516 0f3f
00000090: f247 163f ee1d 273f 743a 09c0 f51f 7ebf
000000a0: b88d 123d fbfa 1bbf 0adf 3cbf 156d 3bbd
000000b0: f804 d33e 1394 7e3c a3c0 95bf 46db 37be
000000c0: 66b3 3ebd c71d 31be d05c a5bf eb92 f8bf
000000d0: c9c8 f03f fa2e 9e3f 005a f6be 21d4 523e
000000e0: 2951 883f 7473 fcbe 8ead dcbe cd6e a0bd
000000f0: 655a 453f d0a9 843e 57d5 4fbd 2bca a03e
00000100: b370 3fbe 9611 dabf 0f28 9a3e 2a23 573f
00000110: c2df b9bf 40b7 973d d865 84be 04a5 053d
00000120: 9e5d a2c0 0ed5 183d 5989 e8bf 9797 7b40
00000130: b4b7 173e 5c39 75bc a1e0 733f 5809 6e3e
00000140: 1702 c53d 94f1 3ebc 53e2 c43d 4df4 3e3e
00000150: bf6e abbd 98ef 32be 2367 0f3f 0b46 b3bf
00000160: 92f5 d83d 0abe ddbc ea2d 8fbf bff2 b6be
00000170: bb3f f33e c575 873c fab5 593d b3a0 473f
00000180: ba9f 99bd 9fd3 1c3f 1990 67be 1871 3e3f
00000190: 9b85 fdbc 61f4 b4bd 493d 6b3d 06da 19c1
000001a0: 148a 71bc f1a3 253f 4096 8ebf 3f87 ad3e
000001b0: 8db3 bbbc ef4f d63d 42e2 26bf 9ff6 4c3f
000001c0: 9667 2d3e 556e f63c 521a 0abe 4127 423f
000001d0: bc47 793d a207 7d3c 1123 1cbf 9d4a 34bd
000001e0: bf77 04bf c6d8 063f 99cb 303e 18f6 a93d
000001f0: dd40 f93e 9ddc 15bf 5f69 61c0 8a27 fbbd
00000200: ff10 283f 5c6b a23e 0e06 7bbe 213b 943d
00000210: d04e da3e b6f0 c2bd 26fe 903e 9eb6 453e
00000220: 7912 f4be 3184 a3bd d3a8 54bf 12c5 aebf
00000230: aa1a 8ebf 9cd8 5fbf ad1b 743f 1e42 4b3f
00000240: 1014 3ebe 49fb d0bf 007a 123f b816 733f
00000250: 6693 cc3e d5e5 77bf 38b2 9cbf 4101 13bf
00000260: 835f 273f 6100 9ebf a287 a6be 765a 62bf
00000270: 9c65 d8be a34c b7bc 9715 fabe 774f a3bf
00000280: e898 2bbd d07f 15be 8b6a 6bbf 05c6 0c3f
00000290: b59e 92bf 5003 603e 8baa bd3e 3996 8ebd
000002a0: 0855 babf 66df d5be ff41 c93e 545f 6b3e
000002b0: e19e 54be 25ff da3d 0b60 3abf ed4c c73b
000002c0: 534b 17bf 96a5 81bf 4241 00ba 7d93 2dbe
000002d0: 8edc b0bf 2fde fd3e 66c0 143f 4629 02be
000002e0: 7e26 03bf 740e 7bbf 5338 47be d1af 81bf
000002f0: 1bea 51bf 21db c33e 5f2e 6a3f 1ad0 c0bf
00000300: d264 1fbf 83db 8d3e e538 39bf bce4 19c0
00000310: 50b1 ee3e a4ce 8ebf 3b7d a33f 9e09 6fbf
00000320: 221c 55bf 6273 5b3e 9c7b 22bf 0e47 bdbf
00000330: f452 54bf 533b a7bd a1fd d0bf bfb7 07be
00000340: cab5 e73d f4b4 67bb d2f3 fabf 8081 77bf
00000350: 3467 3740 8c14 423f 34d0 53be 2998 93be
00000360: 126d 57be 98b4 da3e 61ea d13e 8b20 e83d
00000370: 3294 97be c88d 253e ebf6 0cbf 4489 debe
00000380: 7c6d b2bf e2f6 82bf 7720 27be ea3c 853e
00000390: e9f3 91bf b9b1 ae3e 24db 5cbf d7d4 17c0
000003a0: 38e8 f03e 5aee 26bf b9ca 133f 467d 55bf
000003b0: d09c 073f db92 c3bf 9a46 123f 05f1 193d
000003c0: 1a65 24bd 2ba4 9fbf c18a 38bf 126d 813f
000003d0: 69d4 1fbf b6b0 80bf e110 76bf d800 2d3f
000003e0: ae8f 4e3f 7872 95bf 9618 63bf a4eb 1c3f
000003f0: 8647 983e 282f c6bf f6b0 8f3e 1c6e 2340

bias f4 [128]
4.036093 -2.0206003 -3.5114102 5.218722 4.695476 7.339437 -1.106131 -0.58492637
0.22969142 -0.6654747 -0.4812846 0.7868413 -1.7817342 -1.6672009 4.814209 0.29751882
-1.9780253 -0.3726708 0.034861393 4.260022 0.24463923 0.22817557 -7.7366877 -1.2857423
-1.0695933 0.09486491 -0.5423648 -0.10598209 -0.6112981 1.6465799 -0.3018182 -0.79877764
-0.1021667 -2.623515 0.018222088 1.5069524 -2.999412 0.123097055 5.5342765 4.49029
4.8808527 0.50243604 1.8710446 -0.78424567 5.892819 8.564388 0.4851736 0.21599223
-0.61577475 1.4368298 3.7993803 -2.8177292 -2.822228 -1.7838483 3.5269325 -3.5024981
-1.4316739 -0.019890606 8.377386 -1.190927 -0.37120312 4.4045916 3.7115571 1.6295615
-4.918521 -7.1462765 -5.8313284 -0.079879396 -7.738379 -0.5454176 1.3432693 -4.53269
0.7864715 -0.7525067 -0.50754 -0.11275559 -0.24881218 4.860727 -0.513535 5.7439456
0.024955967 2.0653784 -1.8333501 -0.3011234 2.6337726 0.2321804 0.28723004 -0.35003582
-0.3827265 -0.30452165 -0.29043868 3.1053307 -0.42219967 -0.6064789 1.3580571 3.0836692
1.3893188 -1.0289352 -1.2863237 1.832979 -0.16856277 0.104908384 -0.59338635 3.9945974
-3.459316 -4.074034 3.3641546 1.3083204 -4.6738815 -0.37637207 -0.7866482 -0.95177346
1.1283246 -0.9132857 3.4927664 -0.29426578 -0.21633685 -6.404589 0.0421188 -0.8568957
6.14744 -1.0614302 -0.09611698 -0.28157642 -0.4896 0.6940237 -0.23735245 0.9240472
00000000: ad27 8140 8451 01c0 f2ba 60c0 c5ff a640
00000010: 5741 9640 abdc ea40 b395 8dbf bcbd 15bf
00000020: 3a34 6b3e 8d5c 2abf ef6a f6be 6e6e 493f
00000030: de0f e4bf d766 d5bf 000e 9a40 6354 983e
00000040: ef2f fdbf b5ce bebe d2ca 0e3d 1a52 8840
00000050: b582 7a3e dba6 693e f292 f7c0 3493 a4bf
00000060: 6fe8 88bf 8948 c23d 6bd8 0abf 230d d9bd
00000070: 087e 1cbf 21c3 d23f ea87 9abe b17c 4cbf
00000080: c63c d1bd abe7 27c0 7d46 953c d1e3 c03f
00000090: 5ef6 3fc0 4f1a fc3d cb18 b140 75b0 8f40
000000a0: f22f 9c40 a69f 003f 647e ef3f 53c4 48bf
000000b0: f991 bc40 bc07 0941 ad68 f83e 112d 5d3e
000000c0: 6aa3 1dbf 0aea b73f 0c29 7340 ad55 34c0
000000d0: 629f 34c0 2455 e4bf 43b9 6140 ee28 60c0
000000e0: 1741 b7bf a0f1 a2bc c609 0641 4c70 98bf
000000f0: 560e bebe 6af2 8c40 278a 6d40 7995 d03f
00000100: 8664 9dc0 4cae e4c0 3e9a bac0 cf97 a3bd
00000110: cda0 f7c0 7da0 0bbf 40f0 ab3f cc0b 91c0
00000120: 3256 493f 47a4 40bf 24ee 01bf 67ec e6bd
00000130: 9fc8 7ebe 138b 9b40 0877 03bf 67ce b740
00000140: 7570 cc3c 292f 0440 37ab eabf d92c 9abe
00000150: bb8f 2840 b3c0 6d3e d10f 933e e537 b3be
00000160: baf4 c3be 43ea 9bbe 61b4 94be bdbd 4640
00000170: 8e2a d8be 3442 1bbf d1d4 ad3f d65a 4540
00000180: 33d5 b13f 26b4 83bf 41a6 a4bf 0e9f ea3f
00000190: b89b 2cbe 35da d63d 2be8 17bf 7ca7 7f40
000001a0: 6f65 5dc0 7d5e 82c0 4f4e 5740 0b77 a73f
000001b0: 7090 95c0 d7b3 c0be c761 49bf 6da7 73bf
000001c0: f16c 903f 17cd 69bf 7c89 5f40 01aa 96be
000001d0: 6887 5dbe 65f2 ccc0 c384 2c3d 845d 5bbf
000001e0: d4b7 c440 f2dc 87bf fbd8 c4bd c92a 90be
000001f0: daac fabe 8aab 313f 850c 73be 5b8e 6c3f

weight f4 [128, 128]
-0.59872663 -0.09407661 -0.2402528 0.12105926 0.06097628 0.41464892 0.009708708 0.10936133
0.14457908 0.11232392 -0.19287938 -0.40447527 0.19020055 -0.10225353 -0.26806045 -0.030048694
0.25946692 -0.016039679 -0.073233016 0.033604972 -0.26004547 -0.14137635 -0.05445055 -0.33956006
-0.35977846 -0.35119256 0.02890669 0.028786013 -0.061072208 -0.5204674 0.034548387 -0.14702676
0.015174414 -0.5325086 0.025912778 -0.30471376 -0.28867847 0.5437997 0.3741271 0.06515125
-0.6293931 0.34775612 -0.115569845 -0.28931877 -0.5511865 -0.7415229 -0.009199351 -0.5856725
-0.28668967 0.018217355 -0.009939678 -0.05300218 -0.4965245 -0.083090924 0.3050996 -0.11890395
-0.31699923 -0.50186354 -0.3179977 -0.37723923 -0.013098088 -0.16006328 -0.20585106 -0.5009711
0.0010168622 -0.30881086 -0.25472203 -0.45806202 -0.31559765 -0.7447115 -0.5812899 -0.051848304
0.24593435 -0.1703535 -0.10702981 0.12660962 -0.08127156 -0.54705423 -0.021361588 -0.49697152
-0.060779206 -0.67543745 -0.2942732 -0.07123949 -0.0816589 -0.10155925 -0.48852748 0.17660388
-0.015373857 0.14763854 -0.02158358 -0.11563587 0.11897799 -0.6075534 -0.54282445 -0.23588756
0.00196005 0.17821878 -0.30448565 0.076357454 0.01613148 -0.4136715 -0.2121323 -0.1432965
-0.47390503 -0.3791421 -0.41983193 -0.30388612 -0.21659026 0.018832117 0.0033708191 -0.05632351
-0.14363798 0.0061198226 -0.5170826 -0.030778125 0.038758643 -0.07976537 0.17554583 0.37103236
-0.060606398 -0.59381384 0.08808952 -0.17603976 -0.16503513 -0.5691932 0.16372846 0.7782788
-0.4952774 -0.33768997 -2.2499342 -1.589615 -1.9342718 1.122535 -1.3186171 0.4455446
0.7910734 0.3045559 0.6102835 -0.31549576 1.5836588 -0.3513055 0.19977388 -1.9265766
-1.2019857 0.004404881 0.083585136 -3.5044596 -0.3251462 -3.2816105 0.8020997 0.72243935
0.019259654 0.7416763 0.16511236 -0.042194497 1.4624184 0.8917689 0.004412269 1.193997
0.04074991 -0.7413502 -0.05466212 1.0209644 -0.17689015 0.7379129 -1.8834019 -1.4120526
-1.0671024 0.13438837 -0.8920208 1.7670124 1.5678691 -2.1576052 1.0549076 -1.0945115
0.694415 0.21185242 -3.0588346 0.65441793 -0.23576891 -0.45200518 -0.32832146 0.13481842
-0.9059659 -0.6222552 0.21590982 -0.5319623 -0.06529899 -0.9101143 0.36105207 -0.5069394
-0.11526662 -1.839625 -0.7028299 -0.011061434 -0.70149773 0.4457666 -0.59282565 -1.5879892
0.42153367 1.7443783 -0.081504926 0.049896207 0.11481362 -0.44856188 -0.0779612 -2.3693616
-0.48688573 0.6672039 0.30675164 -1.5065043 0.22408877 -0.32871866 0.3795318 0.029579492
-0.08840823 -0.41613585 -0.13153902 -0.20363742 -0.09268208 -0.16989797 0.49230075 0.5101072
-0.9915427 -0.5458733 0.88325983 -2.0730896 0.013308237 0.69294786 -0.7155511 1.3103253
0.6813402 -0.47088352 0.8926584 0.92711616 0.1785211 0.10064776 -0.021917311 -0.539452
-1.273856 -0.42532304 -0.21300995 0.08257309 -0.10000576 -0.13692962 0.07795084 0.8364121
-0.5612705 0.19857244 0.4046242 0.18441455 -0.008800034 -0.3050055 0.5117309 -0.47070533
00000000: 2646 19bf 3dab c0bd d404 76be ebed f73d
00000010: 44c2 793d dd4c d43e 4611 1f3c d5f8 df3d
00000020: 8a0c 143e 150a e63d 2c82 45be 6217 cfbe
00000030: efc3 423e 4c6a d1bd 383f 89be ae28 f6bc
00000040: d9d8 843e a565 83bc 31fb 95bd 5ea5 093d
00000050: ae24 85be f6c4 10be 8a07 5fbd d1da adbe
00000060: e234 b8be 83cf b3be b9cd ec3c a5d0 eb3c
00000070: da26 7abd 5a3d 05bf 9c82 0d3d 2f8e 16be
00000080: 1b9e 783c 7c52 08bf 0947 d43c 7103 9cbe
00000090: aacd 93be 7536 0b3f 968d bf3e 056e 853d
000000a0: e81f 21bf 170d b23e e2af ecbd 9721 94be
000000b0: 8f1a 0dbf 72d4 3dbf e0b8 16bc a2ee 15bf
000000c0: fdc8 92be 903c 953c 08da 22bc d018 59bd
000000d0: 7638 febe 932b aabd 0436 9c3e ea83 f3bd
000000e0: b94d a2be 217a 00bf 98d0 a2be 8025 c1be
000000f0: 5d99 56bc a1e7 23be 9fca 52be a43f 00bf
00000100: 3c48 853a 751c 9ebe ed6a 82be 1b87 eabe
00000110: 0496 a1be 6aa5 3ebf 6acf 14bf e35e 54bd
00000120: 37d6 7b3e 2671 2ebe 7232 dbbd f4a5 013e
00000130: b471 a6bd bf0b 0cbf 7ffe aebc 0d73 febe
00000140: 9ef3 78bd 78e9 2cbf faaa 96be 02e6 91bd
00000150: c83c a7bd 4cfe cfbd 4620 fabe a6d7 343e
00000160: a1e2 7bbc 8f2e 173e 0cd0 b0bc 80d2 ecbd
00000170: bbaa f33d 9f88 1bbf 8bf6 0abf 828c 71be
00000180: 2f74 003b fc7e 363e 8be5 9bbe 4c61 9c3d
00000190: 2a26 843c c0cc d3be 3639 59be 51bc 12be
000001a0: aea3 f2be ea1e c2be 36f4 d6be f696 9bbe
000001b0: d6c9 5dbe d045 9a3c f6e8 5c3b 7bb3 66bd
000001c0: d615 13be cb88 c83b 865f 04bf 6822 fcbc
000001d0: 62c1 1e3d 075c a3bd 49c2 333e f4f7 bd3e
000001e0: 6a3e 78bd 2f04 18bf 4768 b43d c443 34be
000001f0: f8fe 28be a5b6 11bf 6fa8 273e 483d 473f
00000200: 0095 fdbe b3e5 acbe ecfe 0fc0 8178 cbbf
00000210: 3896 f7bf 3aaf 8f3f 72c8 a8bf 6c1e e43e
00000220: c983 4a3f c0ee 9b3e 8a3b 1c3f a988 a1be
00000230: 55b5 ca3f 51de b3be 8691 4c3e 109a f6bf
00000240: abda 99bf d256 903b af2e ab3d 1149 60c0
00000250: 9079 a6be e805 52c0 6856 4d3f c9f1 383f
00000260: 6cc6 9d3c 7fde 3d3f 3713 293e 23d4 2cbd
00000270: 8730 bb3f f74a 643f cc94 903b e5d4 983f
00000280: 61e9 263d 20c9 3dbf 63e5 5fbd f6ae 823f
00000290: b122 35be dce7 3c3f 5013 f1bf 24be b4bf
000002a0: d096 88bf 1b9d 093e 7a5b 64bf 762d e23f
000002b0: efaf c83f 3416 0ac0 3607 873f f418 8cbf
000002c0: 2ec5 313f d7ef 583e f2c3 43c0 ef87 273f
000002d0: 686d 71be 396d e7be c019 a8be d70d 0a3e
000002e0: 62ed 67bf 1e4c 1fbf 7717 5d3e ae2e 08bf
000002f0: 7abb 85bd 40fd 68bf d1db b83e c8c6 01bf
00000300: e810 ecbd d578 ebbf a9ec 33bf 043b 35bc
00000310: 5b95 33bf 853b e43e 6cc3 17bf 3b43 cbbf
00000320: 43d3 d73e ca47 df3f 0eec a6bd f75f 4c3d
00000330: 6723 eb3d e7a9 e5be 1faa 9fbd 9fa3 17c0
00000340: 1649 f9be e0cd 2a3f 8d0e 9d3e 22d5 c0bf
00000350: 8777 653e d04d a8be fe51 c23e b150 f23c
00000360: 600f b5bd c20f d5be 2ab2 06be 5486 50be
00000370: 1ad0 bdbd bcf9 2dbe d80e fc3e 6396 023f
00000380: bed5 7dbf 5abe 0bbf 511d 623f 80ad 04c0
00000390: cb0a 5a3c 0865 313f 5b2e 37bf bdb8 a73f
000003a0: 506c 2e3f a517 f1be 4385 643f 7c57 6d3f
000003b0: 3cce 363e 6a20 ce3d ef8b b3bc 8719 0abf
000003c0: b70d a3bf f1c3 d9be 481f 5abe 151c a93d
000003d0: d2cf ccbd 4737 0cbe b1a4 9f3d 1a1f 563f
000003e0: 6caf 0fbf 9356 4b3e e72a cf3e 2bd7 3c3e
000003f0: 052e 10bc ae29 9cbe cc00 033f 4a00 f1be

bias f4 [128]
-0.5711112 5.594747 -4.411696e-05 -0.54609686 -1.4180337 -0.17987975 0.07978191 -0.16755866
-0.099270925 -0.15276855 -0.8336473 0.29732415 1.8334892 -1.1747364 -0.118396565 -0.18947475
-0.20556252 1.2216638 -0.19541775 -2.9402971 -0.2769938 -1.1521249 -0.07542789 -1.6478342
-0.8635324 -0.76813036 0.88188463 6.7736173 -0.48821595 0.3352923 0.52074385 6.719309
0.7858196 -1.4402387 -0.54201895 -0.04435491 1.0321841 0.13952272 -0.7090807 -0.16463102
-0.5883323 -0.69519305 -0.89071536 1.213337 -0.47083202 -0.58901757 5.620176 -1.0763092
-1.4740509 -0.22591048 -0.08951699 -0.29931292 -0.31467366 -0.067865804 0.057123557 -0.10961136
-0.25078264 1.6294024 1.9589834 -0.1982547 -0.9447954 0.24036291 -1.0516222 -0.2260825
-0.4979262 -0.2262011 -0.5300984 -1.3291912 -0.05428783 -0.27002755 -0.2191368 0.20658933
-0.27534902 0.050193906 -1.5412629 0.01635356 -0.08837493 -0.52291316 -0.1247694 -0.12279968
-0.12422152 -0.53760415 -0.06312704 1.7259449 0.08887994 -0.41652942 -0.22055246 -0.097043835
-0.66847247 -0.22604519 -0.30397052 -0.116327934 -1.6191697 -0.095113434 -0.42094004 1.9028299
-0.19807127 -0.07324722 -0.19086249 -0.80569416 -1.6189573 -0.2720767 3.8171613 -0.4115171
-0.8371898 -0.37960136 -0.06760711 -1.3717083 0.013893085 -0.27322385 -0.09858539 -0.28787747
-0.13571547 -0.009707416 1.7849882 0.05782697 -0.048593394 -0.43106836 1.6735967 -0.15179773
-0.22235899 -0.0950076 -0.13613284 0.3350238 -0.010192372 -0.05686038 -0.055884227 -0.16851829
00000000: 5834 12bf 2b08 b340 3a0a 39b8 01cd 0bbf
00000010: 2182 b5bf 6632 38be b364 a33d 7f94 2bbe
00000020: 8e4e cbbd 5c6f 1cbe e969 55bf df3a 983e
00000030: c6af ea3f c35d 96bf e679 f2bd ab05 42be
00000040: fb7e 52be 7b5f 9c3f 971b 48be d42d 3cc0
00000050: 22d2 8dbe d478 93bf f079 9abd 3bec d2bf
00000060: 7610 5dbf 31a4 44bf 31c3 613f 79c1 d840
00000070: 71f7 f9be 6fab ab3e 784f 053f 9404 d740
00000080: 792b 493f be59 b8bf c1c1 0abf 7ead 35bd
00000090: 9c1e 843f 0bdf 0e3e 5086 35bf 0995 28be
000000a0: f29c 16bf 2cf8 31bf ec05 64bf a04e 9b3f
000000b0: e510 f1be dbc9 16bf 7bd8 b340 80c4 89bf
000000c0: b3ad bcbf 1455 67be af54 b7bd 8b3f 99be
000000d0: e81c a1be 3afd 8abd 64fa 693d ec7b e0bd
000000e0: 9566 80be 4290 d03f f8bf fa3f 4803 4bbe
000000f0: 1dde 71bf b221 763e 8e9b 86bf 2c82 67be
00000100: 2ff0 febe 43a1 67be 87b4 07bf f022 aabf
00000110: ea5c 5ebd 0d41 8abe 6665 60be 278c 533e
00000120: 8cfa 8cbe 2098 4d3d 1a48 c5bf e7f7 853c
00000130: eafd b4bd a3dd 05bf 1987 ffbd 667e fbbd
00000140: da67 febd 6da0 09bf c048 81bd c3eb dc3f
00000150: b006 b63d 5843 d5be 81d8 61be ebbe c6bd
00000160: 0321 2bbf 6478 67be 06a2 9bbe 573d eebd
00000170: f440 cfbf d5ca c2bd 7485 d7be ee8f f33f
00000180: 32d3 4abe a302 96bd 7571 43be f941 4ebf
00000190: fe39 cfbf a34d 8bbe 5f4c 7440 5fb2 d2be
000001a0: 1252 56bf 1c5b c2be 9975 8abd 2394 afbf
000001b0: d29f 633c ffe3 8bbe 23e7 c9bd ad64 93be
000001c0: fff8 0abe db0b 1fbc 7e7a e43f f9db 6c3d
000001d0: de09 47bd feb4 dcbe 6b38 d63f dd70 1bbe
000001e0: 13b2 63be 5893 c2bd 6866 0bbe 3d88 ab3e
000001f0: e8fd 26bc 6ee6 68bd dce6 64bd 0f90 2cbe

weight f4 [128, 128]
0.118096374 0.37991765 -0.523232 0.073457636 -1.0717067 -0.9068829 0.82949287 0.244481
-0.44054973 -0.4203829 -0.6589214 -0.8409367 -0.41139916 0.10972013 0.8206222 0.5286645
0.02612235 -0.060725056 0.035908863 -1.0837374 -0.42605495 0.59498507 0.32941458 -0.6945669
-0.24720596 1.1780548 -0.22057478 0.033851 -1.244412 -0.14433655 0.053050987 0.33882457
-0.013936413 -0.960741 -0.0018499094 -0.66609967 -1.0770509 0.42845955 -1.549044 -0.95897305
-0.71506184 -1.1830707 0.39414176 -1.2795944 0.074409224 0.050478596 -0.21361868 0.037650034
-0.14999264 -0.6187724 -1.1685686 0.46695668 0.66869414 0.39293984 0.1705028 -0.08463493
-0.70434856 -0.28416148 -1.095456 0.08302142 -0.07493075 -0.2689597 0.03859131 -0.42348117
-0.23838218 -0.2804887 -0.28774795 -0.5213776 0.13689074 -0.08053666 -0.19318084 0.51343435
-0.5414151 -0.46096048 -0.004948413 0.11848682 -0.21152075 -0.9354282 0.17557982 0.07845286
0.585884 -0.8463784 -0.37125 -0.05763413 -0.20552322 0.14797623 0.5723753 0.08600667
0.29329178 0.55873114 0.025485137 -0.18396811 -0.33354864 0.060122807 0.32563004 -0.70649815
0.34898865 0.13356914 -0.80070496 0.1818527 -0.0021456224 -1.1498708 -0.56125075 -0.32750303
0.38654545 -0.46440426 -0.23466477 0.44693217 -0.10434245 -0.21603623 -0.34973398 -0.08881333
-0.9323317 0.6067828 0.7550875 -0.0025745402 -0.025403738 -1.4916719 0.069489904 0.15615062
-0.41526398 -0.50767124 0.059145767 -0.0464605 0.066258155 -1.1246638 -0.14546506 0.41692007
0.29539272 -0.2048797 -0.18172365 0.028936513 -0.19112335 -0.1630121 -0.11720756 0.030556684
-0.045840442 -0.13343903 0.040641487 -0.3584421 -0.2664985 0.10583613 0.20531826 -0.15592098
0.21533132 0.031024752 0.01836848 -0.11287668 -0.07372019 -0.16949148 0.0012497014 -0.22481503
-0.049898867 -0.0098598115 0.015908232 -0.07958219 0.13748693 0.13076311 -0.0059538116 -0.10085206
0.055797875 -0.19556928 -0.005420541 -0.11117465 -0.11937964 -0.21398807 0.120969065 -0.004889313
0.13687252 -0.00018425377 -0.17334744 -0.31176323 -0.0035519677 -0.052559093 0.09152908 -0.12838952
0.061728645 0.11726112 -0.1957955 -0.16159593 -0.43525138 0.007631518 0.19322628 -0.0147801535
-0.06430515 -0.25562388 -0.23646718 -0.11328873 -0.08053013 -0.49735206 0.012470367 -0.1085795
-0.11337827 -0.1109801 0.0008054138 -0.20994756 -0.38699302 -0.3197209 -0.2787401 -0.39068094
0.0041815294 -0.20862684 -0.054108907 -0.10253885 -0.035123292 -0.37804744 -0.024271725 0.12593733
-0.20896098 -0.22918503 0.2010537 0.047399145 0.12619567 -0.18705267 -0.18900904 0.022103718
0.017796366 -0.015387948 -0.034846883 -0.06286518 -0.08438598 0.11287204 -0.088436 -0.042348277
-0.15283985 0.13724013 -0.11933433 -0.055424564 -0.011723464 0.17570898 0.32920185 -0.2629658
0.19697526 -0.23834859 0.08399417 -0.008472727 0.06262358 0.0030399142 0.010089716 -0.28733644
-0.4519162 -0.22908245 -0.30352476 -0.037247963 -0.033615515 -0.021641025 0.03345546 0.329601
-0.4908646 -0.3396508 -0.0862893 -0.029426616 0.04583129 -0.14094208 0.04663496 -0.35331565
00000000: 83dc f13d 9184 c23e 88f2 05bf f570 963d
00000010: af2d 89bf 7a29 68bf a559 543f 3a59 7a3e
00000020: bc8f e1be 6d3c d7be 13af 28bf a147 57bf
00000030: e9a2 d2be f3b4 e03d 4c14 523f 8f56 073f
00000040: 8afe d53c d6ba 78bd 2c15 133d e8b7 8abf
00000050: e023 dabe f150 183f 07a9 a83e 23cf 31bf
00000060: 8f23 7dbe 80ca 963f 5bde 61be 59a7 0a3d
00000070: e448 9fbf f6cc 13be fe4b 593d 6a7a ad3e
00000080: 8e55 64bc 1ff3 75bf a978 f2ba 8285 2abf
00000090: cedc 89bf 0d5f db3e 1347 c6bf 427f 75bf
000000a0: 4b0e 37bf dc6e 97bf f3cc c93e c0c9 a3bf
000000b0: dd63 983d a5c2 4e3d dbbe 5abe ec36 1a3d
000000c0: ac97 19be de67 1ebf a893 95bf f214 ef3e
000000d0: 8a2f 2b3f 692f c93e 4998 2e3e 1455 adbd
000000e0: 3050 34bf 9d7d 91be e737 8cbf 2207 aa3d
000000f0: 4b75 99bd 16b5 89be ec11 1e3d 86d2 d8be
00000100: 751a 74be 379c 8fbe b353 93be 0179 05bf
00000110: 162d 0c3e 68f0 a4bd 33d1 45be 6f70 033f
00000120: 2e9a 0abf 0303 ecbe 4c26 a2bb 38a9 f23d
00000130: e598 58be 3978 6fbf 32cb 333e e5ab a03d
00000140: 7efc 153f 41ac 58bf 7b14 bebe c411 6cbd
00000150: ae74 52be 1587 173e 3087 123f 4424 b03d
00000160: 572a 963e 0109 0f3f 35c6 d03c 2362 3cbe
00000170: e3c6 aabe 5543 763d fbb8 a63e 10dd 34bf
00000180: a4ae b23e 59c6 083e 00fb 4cbf 9837 3a3e
00000190: 929d 0cbb f72e 93bf 21ae 0fbf 7aae a7be
000001a0: 49e9 c53e 65c6 edbe f64b 70be 4bd4 e43e
000001b0: 7fb1 d5bd 9a38 5dbe 5510 b3be c3e3 b5bd
000001c0: 4aad 6ebf 1e56 1b3f 6a4d 413f 9eb9 28bb
000001d0: 801b d0bc 1bef bebf b950 8e3d f3e5 1f3e
000001e0: 7b9d d4be bef6 01bf d542 723d 5e4d 3ebd
000001f0: 5bb2 873d fcf4 8fbf cbf4 14be 8c76 d53e
00000200: b73d 973e fccb 51be c415 3abe 440c ed3c
00000210: d7b5 43be a5ec 26be 840a f0bd 0352 fa3c
00000220: 30c3 3bbd 3ea4 08be b077 263d b985 b7be
00000230: 7e72 88be 9dc0 d83d f33e 523e c0a9 1fbe
00000240: d07f 5c3e 9f27 fe3c 7f79 963c e42b e7bd
00000250: 9cfa 96bd 2d8f 2dbe 05cd a33a e935 66be
00000260: c162 4cbd 0c8b 21bc fb51 823c fdfb a2bd
00000270: 60c9 0c3e c4e6 053e 3118 c3bb 868b cebd
00000280: 508c 643d 5043 48be cb9e b1bb 89af e3bd
00000290: 507d f4bd b01f 5bbe a1be f73d 8836 a0bb
000002a0: 4f28 0c3e 3f34 41b9 fe81 31be 6e9f 9fbe
000002b0: 21c8 68bb 3448 57bd 9973 bb3d 8b78 03be
000002c0: 2dd7 7c3d 9926 f03d 9e7e 48be 6779 25be
000002d0: 45d9 debe d011 fa3b 1cdd 453e 7528 72bc
000002e0: 6bb2 83bd 22e1 82be 7424 72be ec03 e8bd
000002f0: fbec a4bd eea4 febe 8350 4c3c ee5e debd
00000300: de32 e8bd 8949 e3bd 6822 533a 7efc 56be
00000310: f323 c6be 75b2 a3be 06b7 8ebe 5507 c8be
00000320: 3605 893b 46a2 55be 4da1 5dbd e3ff d1bd
00000330: 71dd 0fbd 6f8f c1be 7fd5 c6bc b7f5 003e
00000340: def9 55be 7baf 6abe 05e1 4d3e 9b25 423d
00000350: 7039 013e bc8a 3fbe 968b 41be db12 b53c
00000360: afc9 913c bb1d 7cbc 9bbb 0ebd 76bf 80bd
00000370: 8fd2 acbd 7529 e73d ef1d b5bd 6375 2dbd
00000380: 0d82 1cbe ad88 0c3e 8f65 f4bd de04 63bd
00000390: c613 40bc 0eed 333e 258d a83e 74a3 86be
000003a0: e2b3 493e a711 74be 2305 ac3d 31d1 0abc
000003b0: cb40 803d 4c39 473b 564f 253c c31d 93be
000003c0: 8f61 e7be 9794 6abe 9967 9bbe 5291 18bd
000003d0: 6cb0 09bd 8548 b1bc 9808 093d 76c1 a83e
000003e0: 9b52 fbbe b6e6 adbe 72b8 b0bd 1610 f1bc
000003f0: 97b9 3b3d 1f53 10be 4d04 3f3d cae5 b4be

bias f4 [128]
-0.9479104 -0.11442189 -0.13824567 -0.011601334 -0.060056277 -0.19737759 -0.17067172 -5.3123064
-0.028360343 -1.9584314 -0.1699345 -2.0279968 -1.3579344 -0.3134728 -1.2124921 -24.493938
-5.951039 -0.38051957 -1.1644546 -0.12424886 -0.7578198 -0.031896815 7.473412 -0.6237424
-0.49809134 -0.37904721 -2.228891 -0.6761495 -0.4011793 -1.386057 7.472991 1.4098469
-0.06554243 -1.1247901 0.5686491 -2.5179126 -1.2022268 0.28224912 -0.42512134 -0.33849174
-0.47180492 -0.21873555 0.01940396 -0.03307201 -0.8653012 -0.54393995 -0.214277 -0.42433366
-0.13413414 -1.6407195 -0.3205489 -0.14128451 -0.14334968 -0.38227192 -2.0937698 -0.058901235
-0.12538081 2.3112323 -0.970418 -0.08631894 -0.04351183 -0.08672644 5.178627 5.5540814
0.7128697 -0.45459926 -0.83522576 -1.1895893 -1.3359355 1.7347436 -0.20203546 2.6466448
-0.81731963 4.7165356 -0.24825588 -3.1517267 0.8463825 0.024990845 -2.8592339 0.010558462
-3.4416494 -0.1050663 0.72183704 -0.06941455 0.31256917 -0.16419075 -2.1475008 -0.1813397
-0.18618053 -0.23814231 0.69147176 0.28481552 -0.36932686 -0.04001595 3.9384642 -0.019205384
-0.02637884 -0.099678904 -2.3783321 -0.28172025 0.63130605 -0.3038486 1.1382117 3.108582
-0.22566076 -0.13134739 -0.11779992 -1.4497081 -0.03348747 -0.124504805 0.019557327 -0.26325068
-0.99450994 -0.079924 -0.21184804 -0.36888015 -2.5341454 -0.9384604 -0.8367129 -0.3480428
-4.330479 -0.0833007 2.5062945 -3.0351489 -0.18636051 -2.2314649 -0.40838405 0.83437353
00000000: 42aa 72bf 0656 eabd 4690 0dbe 8613 3ebc
00000010: 92fd 75bd 5a1d 4abe 91c4 2ebe 6afe a9c0
00000020: f353 e8bc e1ad fabf 4f03 2ebe b3ca 01c0
00000030: cbd0 adbf 827f a0be f132 9bbf 96f3 c3c1
00000040: e96e bec0 76d3 c2be d90c 95bf 3076 febd
00000050: 7a00 42bf 3ca6 02bd 3126 ef40 95ad 1fbf
00000060: d405 ffbe 7a12 c2be 26a6 0ec0 2218 2dbf
00000070: 6067 cdbe 516a b1bf be22 ef40 dd75 b43f
00000080: 1c3b 86bd 1ff9 8fbf fd92 113f 7b25 21c0
00000090: 91e2 99bf f582 903e 81a9 d9be ca4e adbe
000000a0: 6a90 f1be 36fc 5fbe 0ef5 9e3c 8476 07bd
000000b0: 6184 5dbf a63f 0bbf 6e6b 5bbe 4342 d9be
000000c0: 765a 09be 1903 d2bf fc1e a4be e3ac 10be
000000d0: 42ca 12be 25b9 c3be 5300 06c0 6c42 71bd
000000e0: d463 00be 3beb 1340 506d 78bf fcc7 b0bd
000000f0: 7639 32bd a29d b1bd 50b7 a540 09bb b140
00000100: a17e 363f 3cc1 e8be 5bd1 55bf 7644 98bf
00000110: efff aabf 140c de3f 62e2 4ebe a162 2940
00000120: dc3b 51bf dced 9640 ca36 7ebe e4b5 49c0
00000130: 86ac 583f 9ab9 cc3c b0fd 36c0 66fd 2c3c
00000140: fc43 5cc0 002d d7bd 50ca 383f 3729 8ebd
00000150: 1109 a03e 9f21 28be a770 09c0 1db1 39be
00000160: 1ca6 3ebe 94db 73be 4b04 313f 57d3 913e
00000170: 6918 bdbe c4e7 23bd cc0f 7c40 9c54 9dbc
00000180: 7018 d8bc 7424 ccbd 9836 18c0 a33d 90be
00000190: 469d 213f 0b92 9bbe ecb0 913f 02f3 4640
000001a0: 9d13 67be ee7f 06be 1641 f1bd 0990 b9bf
000001b0: 282a 09bd 60fc febd b036 a03c cbc8 86be
000001c0: 3498 7ebf 32af a3bd b1ee 58be dcdd bcbe
000001d0: 702f 22c0 f13e 70bf d132 56bf aa32 b2be
000001e0: 4993 8ac0 8f99 aabd 2167 2040 e13f 42c0
000001f0: 4ad5 3ebe 52d0 0ec0 b717 d1be 8199 553f

weight f4 [1, 128]
-0.13323212 0.35845262 -0.0024595659 -0.14765179 0.47522083 -0.82822335 -1.1858965 -0.034802616
-0.90300107 -0.017227013 0.13795237 -0.39685515 0.4449063 -0.07274483 -0.031875506 -0.009490316
0.0022764306 0.6614304 -0.023205368 0.23297183 -0.030040538 0.00949883 -0.03428439 0.64208245
-0.9809861 -0.08210705 -1.0618752 0.8020007 -0.7738223 -0.9724444 0.23501843 0.25164062
-0.7615773 -0.070718676 -0.07620117 0.15604834 0.49455884 -0.36465377 0.056522273 -0.3048902
-0.01424036 -0.0027110844 0.028480612 0.65097445 0.1101283 0.6858946 0.6795804 -0.12965383
0.22828928 -0.12521973 -0.0009830084 0.074002475 -0.1507807 0.0057400567 -0.48178273 -0.011542837
-0.4787759 -1.9456875 0.45104036 -0.042034794 0.10571175 -1.0241748 0.43738377 -0.021072004
0.021282764 -0.060376037 -1.4217944 1.279073 -0.050110653 -0.5714282 0.02541966 -1.1604924
0.07319724 -1.0120502 -0.020204574 0.0058452836 -0.028960178 -0.109662056 -0.022189267 0.047954373
-0.027339341 -0.21821335 0.0053536007 -2.1815195 -1.9891905 0.1493226 0.03478735 -0.04360623
-1.6058846 -0.004641264 0.02664623 -0.025817048 0.41215968 -0.04460763 0.027565373 -1.0107212
-0.095660456 -0.0041608554 0.04140264 0.78987783 0.47930405 -1.3460894 0.19789991 -0.11037667
0.020991482 -0.28836495 -0.0053246687 -0.059241958 0.040630974 -0.049528483 -0.07836204 0.12054226
-0.051604107 -0.013146718 0.19463338 -1.0465319 -0.0075253784 0.110049605 -1.2676848 -0.026189465
-0.007826071 0.13695818 -0.14561543 -0.784594 0.004553398 -0.033041753 0.05432023 -0.042301446
00000000: 006e 08be 1a87 b73e ab30 21bb 0832 17be
00000010: 2550 f33e 7206 54bf 75cb 97bf 308d 0ebd
00000020: 142b 67bf aa1f 8dbc 6343 0d3e 9930 cbbe
00000030: c2ca e33e 3efb 94bd e48f 02bd 457d 1bbc
00000040: 2b30 153b 8153 293f 2f19 bebc 2b90 6e3e
00000050: 9317 f6bc fba0 1b3c ca6d 0cbd 845f 243f
00000060: e821 7bbf be27 a8bd 87eb 87bf eb4f 4d3f
00000070: 3819 46bf 1ef2 78bf aca8 703e 0ad7 803e
00000080: bbf6 42bf f4d4 90bd 5c0f 9cbd 23cb 1f3e
00000090: d136 fd3e e6b3 babe e683 673d 911a 9cbe
000000a0: 6650 69bc 73ac 31bb 2c50 e93c 43a6 263f
000000b0: f28a e13d ca96 2f3f fbf8 2d3f f9c3 04be
000000c0: aac4 693e 9a39 00be 4ad8 80ba 9c8e 973d
000000d0: 4166 1abe 1617 bc3b 3aac f6be 2b1e 3dbc
000000e0: 1d22 f5be 4a0c f9bf c3ee e63e ad2c 2cbd
000000f0: 677f d83d 2918 83bf c4f0 df3e 329f acbc
00000100: 3159 ae3c dd4c 77bd 5cfd b5bf aab8 a33f
00000110: d440 4dbd 1e49 12bf e43c d03c 048b 94bf
00000120: 6fe8 953d dc8a 81bf 1084 a5bc cb89 bf3b
00000130: e53d edbc 8096 e0bd 44c6 b5bc ce6b 443d
00000140: c1f6 dfbc 5273 5fbe 426d af3b 049e 0bc0
00000150: cb9d febf 06e8 183e 2e7d 0e3d 729c 32bd
00000160: a08d cdbf bf15 98bb 3249 da3c 467e d3bc
00000170: 9806 d33e 7eb6 36bd c7d0 e13c 505f 81bf
00000180: a1e9 c3bd c957 88bb d195 293d 6f35 4a3f
00000190: 5767 f53e a84c acbf 46a6 4a3e 2a0d e2bd
000001a0: 54f6 ab3c 92a4 93be 8f7a aebb b2a7 72bd
000001b0: aa6c 263d 61de 4abd 477c a0bd dcde f63d
000001c0: d45e 53bd 5565 57bc f94d 473e c2f4 85bf
000001d0: 7397 f6bb b061 e13d 7f43 a2bf 4a8b d6bc
000001e0: ec38 00bc c43e 0c3e 361c 15be 27db 48bf
000001f0: ac34 953b ca56 07bd e47e 5e3d 4844 2dbd

weight f4 [5, 128]
0.044135794 -0.052733082 0.25980738 -0.016473109 0.07619731 0.06709713 -0.057134695 -1.3809832
0.08285854 -0.25311944 -0.050381985 -1.4821881 -0.29917502 -0.20860156 0.6824143 -1.0741373
0.8434368 -0.042172194 0.00719021 0.022349324 -0.051343303 0.03898593 -0.7435502 0.27514872
0.2784733 -0.03624303 -1.9894214 -0.08396346 -0.050016765 0.369392 -1.3696241 -0.42727324
-0.00095152913 -0.11624758 -1.5259017 -0.060371224 0.0844655 -0.48790982 0.19272149 0.052164476
1.0878292 0.23598929 0.09039119 -0.0057079764 1.0210029 -0.15321316 0.11113589 0.31936574
0.11654784 0.23326033 0.09560698 0.030978482 0.032737266 -0.5949896 0.47206122 0.016017264
0.2347527 0.18211657 0.58296937 0.06604071 0.038357817 0.16892998 -1.3060836 -0.6330131
-0.49710894 -0.27412227 0.037026383 0.4207319 0.2032909 -2.127976 -0.34621492 -0.85476255
0.38950148 0.5843748 -0.38933444 -0.14971201 0.6047647 -0.43877196 -0.32828322 0.10280328
0.3622515 -0.05380454 -0.23035054 0.7198944 0.7336119 0.062505625 0.009307677 0.06235443
-0.09441958 0.13811077 -0.54903156 -0.4657529 1.5554929 -0.02023144 0.08205046 0.002537329
0.68323195 0.09243639 -0.4091022 -0.049264487 -0.49407193 -1.7367767 0.6630576 0.3875915
0.12860684 0.027632551 0.0700704 1.0917685 -0.06280672 -0.12221177 -0.03433286 0.26531947
0.920715 0.025211511 0.15544778 -0.25141883 0.6225749 0.5681383 -0.9357288 -0.122674145
-0.03653572 -0.04943709 0.11858728 -1.4741734 0.20551558 0.052107755 0.22395192 0.8834518
0.16145824 0.16172004 0.25810653 -0.87442464 0.07692207 0.14209186 0.008628505 -1.5244582
0.07135691 -0.73232263 0.07962332 -0.22675766 0.59366554 -0.16032074 0.80494606 -1.0383624
-1.3501785 1.206125 -0.30273604 -0.034991387 0.85394615 0.07343671 -0.7705765 0.09067953
-1.5056303 -0.048382416 -0.5703157 1.0595531 0.007161776 -0.5579552 -1.4169655 -0.4433073
-0.015701469 -0.13903478 0.42873433 1.2211896 0.024413878 -1.0204209 -0.08039869 0.08468786
0.77976006 -0.07922624 0.073778845 0.05573804 0.5638723 -0.0054563815 0.14107165 0.5242448
-0.09570952 1.263936 -0.13613892 0.10039481 -0.1751633 0.1909311 -0.046308424 0.048430663
0.05223191 -1.7856175 0.88050735 -0.5316935 0.037621394 -0.3001581 -1.3555762 -1.6026632
0.4117887 1.5715235 0.40626788 0.31941247 -0.02728069 -1.1700169 0.017831909 -0.83141375
-1.3630655 0.4178306 -0.9519975 -0.5604852 -1.0462505 -0.3331911 -0.6031526 0.037161898
0.65485424 0.06292791 -0.23759963 0.36611664 -0.43931904 -0.04308501 0.04602302 0.09596853
0.057056583 0.040180743 0.8685143 0.09309467 2.0487955 -0.0443652 -1.1108689 0.010194613
-0.25631046 -0.052263416 0.6381706 -0.21601339 -0.89926404 -0.5488977 -0.5510218 0.22466822
0.16763885 -0.03265566 -0.08740297 1.0750393 0.3051576 -0.06930584 0.040294565 0.19352162
0.15221006 0.040021505 -0.13813338 0.17746946 0.9782589 0.52183414 0.3554025 0.35120508
0.6125081 0.116744995 0.032812066 -0.8643888 -0.24740902 0.11541707 -0.107543394 0.97282463
00000000: bcc7 343d a5fe 57bd 7905 853e 9df2 86bc
00000010: 560d 9c3d 386a 893d 1206 6abd 0fc4 b0bf
00000020: bdb1 a93d df98 81be 575d 4ebd 57b8 bdbf
00000030: 782d 99be a69b 55be b4b2 2e3f 557d 89bf
00000040: 79eb 573f c0bc 2cbd da9b eb3b ee15 b73c
00000050: 5b4d 52bd b6af 1f3d 4e59 3ebf 4be0 8c3e
00000060: 0d94 8e3e 9273 14bd 5ca5 febf 09f5 abbd
00000070: 61de 4cbd f320 bd3e d84f afbf 8fc3 dabe
00000080: 0a70 79ba 3613 eebd bf50 c3bf d147 77bd
00000090: 40fc ac3d 51cf f9be c858 453e 6baa 553d
000000a0: fd3d 8b3f 2da7 713e 041f b93d fa09 bbbb
000000b0: 39b0 823f e9e3 1cbe 379b e33d e883 a33e
000000c0: a2b0 ee3d ccdb 6e3e 98cd c33d 96c6 fd3c
000000d0: 8317 063d 3d51 18bf 02b2 f13e a336 833c
000000e0: 0363 703e c47c 3a3e 7b3d 153f 5a40 873d
000000f0: 161d 1d3d fbfb 2c3e bf2d a7bf 260d 22bf
00000100: 1085 febe c159 8cbe faa8 173d 2c6a d73e
00000110: 7d2b 503e c230 08c0 1543 b1be b8d1 5abf
00000120: bd6c c73e 9699 153f d856 c7be 1b4e 19be
00000130: dcd1 1a3f b8a6 e0be bd14 a8be 878a d23d
00000140: 0779 b93e 2662 5cbd 03e1 6bbe 004b 383f
00000150: fdcd 3b3f f302 803d 3a7f 183c 5c67 7f3d
00000160: 0e5f c1bd e96c 0d3e 558d 0cbf 2a77 eebe
00000170: 641a c73f 68bc a5bc 120a a83d 5149 263b
00000180: 4ae8 2e3f 4a4f bd3d d875 d1be 8fc9 49bd
00000190: fff6 fcbe b34e debf 25be 293f 6572 c63e
000001a0: 83b1 033e a95d e23c 1281 8f3d 12bf 8b3f
000001b0: cfa0 80bd 2a4a fabd 9da0 0cbd f4d7 873e
000001c0: fab3 6b3f 5f88 ce3c b42d 1f3e f8b9 80be
000001d0: 1261 1f3f 8371 113f ec8b 6fbf 953c fbbd
000001e0: 7ba6 15bd 8c7e 4abd e3dd f23d b7b1 bcbf
000001f0: ad72 523e f16e 553d a753 653e e629 623f
00000200: 4f55 253e f099 253e 8a26 843e 4bda 5fbf
00000210: 5189 9d3d 8780 113e 935e 0d3c 7221 c3bf
00000220: 9223 923d 7f79 3bbf 8d11 a33d 2933 68be
00000230: 77fa 173f 1f2b 24be f210 4e3f 0fe9 84bf
00000240: a6d2 acbf 4e62 9a3f 3800 9bbe 2153 0fbd
00000250: 379c 5a3f fc65 963d 8044 45bf 30b6 b93d
00000260: 7eb8 c0bf a42c 46bd 3600 12bf 709f 873f
00000270: 55ad ea3b 27d6 0ebf 205f b5bf 2df9 e2be
00000280: 5ea0 80bc 225f 0ebe 1183 db3e f14f 9c3f
00000290: 9dff c73c 279d 82bf 12a8 a4bd d470 ad3d
000002a0: 5b9e 473f 5e41 a2bd 5d19 973d 924d 643d
000002b0: ef59 103f 72cb b2bb 1675 103e e834 063f
000002c0: 5a03 c4bd a8c8 a13f 0068 0bbe cb9b cd3d
000002d0: 025e 33be 7183 433e e7ad 3dbd 3b5f 463d
000002e0: 21f1 553d 1d8f e4bf ee68 613f 111d 08bf
000002f0: e418 1a3d 53ae 99be 8583 adbf 1124 cdbf
00000300: f8d5 d23e af27 c93f 5802 d03e 088a a33e
00000310: c17b dfbc 1dc3 95bf 3914 923c 88d7 54bf
00000320: ee78 aebf e4ed d53e 1cb6 73bf f57b 0fbf
00000330: 89eb 85bf 0698 aabe 3568 1abf 1337 183d
00000340: 87a4 273f 59e0 803d 514d 73be a473 bb3e
00000350: 6dee e0be e879 30bd a282 3c3d 268b c43d
00000360: 2ab4 693d 9094 243d f456 5e3f 6ba8 be3d
00000370: 771f 0340 49b8 35bd f430 8ebf 4e07 273c
00000380: 203b 83be 2a12 56bd 265f 233f 9d32 5dbe
00000390: 2b36 66bf 8f84 0cbf c40f 0dbf 6d0f 663e
000003a0: 85a9 2b3e f1c1 05bd 5400 b3bd e39a 893f
000003b0: 9e3d 9c3e 38f0 8dbd ea0b 253d 882a 463e
000003c0: f4dc 1b3e 97ed 233d d672 0dbe 8eba 353e
000003d0: 2d6f 7a3f ec96 053f 51f7 b53e 27d1 b33e
000003e0: 55cd 1c3f 0018 ef3d f265 063d 9648 5dbf
000003f0: ca58 7dbe c95f ec3d b63f dcbd 090b 793f

bias f4 [5]
-3.1692894 -0.7739583 1.9301564 -1.0962695 -0.30745062
00000000: a3d5 4ac0 2222 46bf 5d0f f73f 8f52 8cbf
00000010: 2b6a 9dbe
