Industrial_AI-main/projects/Project/New folder/Reinfore/RL-Project-master/trained_models/dueling_double_dqn/model_seed2.pt (torch, 151799 bytes, 9 tensors)

weight f4 [128, 23]
-0.36475196 -0.6250882 -0.8405796 -0.81805986 0.13450228 0.1045923 0.28389692 -0.83992916
0.72627264 0.3928935 0.36901414 -0.5409002 -0.26037943 0.050515685 0.34731814 -0.64878726
0.08415347 0.1562232 0.58196276 -0.032195378 0.23726174 -0.003704089 0.41462547 -0.094462894
-0.96699125 1.552248 -1.4330616 -0.40650803 -0.033445165 0.28325555 -0.8952074 -0.31831366
0.30161974 0.44257078 -0.5883843 -0.16322409 -0.0720875 0.56277984 -0.8578886 -0.47983
-0.036920503 -0.5130332 -0.97244227 -0.31443828 0.36719066 -0.091590405 -0.39931935 -0.73825943
-5.5288687 0.17393559 0.7025624 -0.49975833 0.111495815 0.011379517 1.3743596 0.54441524
-0.16380113 -0.09580996 0.97347295 0.06385396 0.27988172 0.23778933 0.65244246 0.1611691
-0.0067279753 0.09591568 0.476173 -0.038612947 -0.0823717 -0.6121376 -1.5445982 2.9220824
-0.10277911 -0.4435069 0.42211097 0.29290086 -0.016517617 -1.0797008 -0.27886206 0.1463057
0.2076995 0.2589946 -0.13555655 -0.12335791 -0.6800931 -1.7233953 -0.07205885 -1.0687922
-0.25035304 -1.4141288 0.09703477 -0.7978196 -0.18701358 0.7427267 0.40421537 -1.0251164
0.18926282 -1.1203667 -0.30637154 0.692505 -0.10147208 0.31357223 -0.08858828 -0.5370021
0.08742799 0.87767476 1.0200388 -0.2900397 -0.12842874 0.6566617 -0.044927105 -2.0352669
0.6815228 -0.42887247 -1.3359361 -0.17332453 -0.28622732 -0.12288684 -0.20500696 -0.04935552
-0.095955096 0.031206295 -0.14967506 -0.22149685 -0.12276478 -0.2999808 -0.37408608 0.020236969
-0.17068392 0.033845056 -0.26511762 -0.1368944 0.0084847715 0.0028333864 -0.19103938 -0.08884855
-0.026610505 0.053846736 0.43812364 -0.025356147 -0.9460134 -2.4626029 0.34536448 -2.6534667
-0.1791264 -4.576238 0.011255418 2.808741 1.6472006 -0.8233797 0.14585297 0.1717554
-0.9866861 0.40552196 0.36760247 -0.066788055 -0.6847179 0.15244618 0.80831474 -0.051772617
0.20947254 0.5063475 0.03848607 0.10515609 -6.714662 0.11014199 -2.5607772 1.8738023
-1.3592156 -0.120379925 -0.4641721 0.021807097 0.3029236 0.062680736 0.64889026 -0.052572757
0.48755082 0.05728729 -0.019019224 0.29332295 0.8233564 -0.1002047 2.240702 0.15594575
-0.67597854 0.6949942 -0.85512567 -0.7539579 1.0491745 -1.2015799 -0.16066714 -0.24874222
-0.22700754 -0.18936518 -0.1411662 -0.62748325 1.079755 0.74186164 -0.15895034 -3.6238878
0.7172848 0.923725 -0.16633485 -2.3471353 0.20288946 -0.48755434 -0.18298802 -0.032144587
-0.377193 0.13482356 -0.090766944 0.23206392 0.15486342 0.09735859 -0.16786915 0.13963966
-0.09614446 0.37685192 -0.3814859 -0.2184142 0.19224842 0.07502375 -0.59065545 -0.10279091
0.16677473 0.004813363 -0.30508345 -0.06684039 0.1867718 -0.08313398 -0.3134915 -0.10341147
-0.06315493 -0.30446795 0.095413804 -0.0042474363 0.21365456 -0.055453856 0.0003621637 -0.19472125
-0.085232705 -0.34121168 0.13648418 0.048853762 0.21937068 -0.20209368 0.101659566 0.0047951327
-0.027339576 -0.25887093 -0.05725686 0.013378635 0.2137599 -0.9271795 -1.5909631 -1.928885
00000000: c5c0 babe c805 20bf 3a30 57bf 5f6c 51bf
00000010: f7ba 093e 7d34 d63d f05a 913e 9905 57bf
00000020: 01ed 393f 5629 c93e 6cef bc3e 6f78 0abf
00000030: 7450 85be 89e9 4e3d afd3 b13e ec16 26bf
00000040: a858 ac3d f9f8 1f3e 83fb 143f 4ddf 03bd
00000050: bef4 723e 4dc0 72bb ca49 d43e c375 c1bd
00000060: bd8c 77bf 10b0 c63f 906e b7bf d221 d0be
00000070: ccfd 08bd df06 913e 502c 65bf 02fa a2be
00000080: e76d 9a3e a398 e23e 5aa0 16bf 3724 27be
00000090: 9ca2 93bd 5712 103f 969e 5bbf 47ac f5be
000000a0: f439 17bd 2556 03bf faf1 78bf 0efe a0be
000000b0: 6a00 bc3e c093 bbbd 9673 ccbe 92fe 3cbf
000000c0: 7eec b0c0 2c1c 323e 21db 333f 53e0 ffbe
000000d0: eb57 e43d 2771 3a3c 04eb af3f cc5e 0b3f
000000e0: 7cbb 27be 0338 c4bd 8635 793f ddc5 823d
000000f0: a84c 8f3e 0c7f 733e 7806 273f 8309 253e
00000100: 5976 dcbb 716f c43d f3cc f33e 9c28 1ebd
00000110: 7eb2 a8bd 0db5 1cbf 65b5 c5bf 6603 3b40
00000120: db7d d2bd 5613 e3be ee1e d83e 1af7 953e
00000130: f44f 87bc a333 8abf 02c7 8ebe 29d1 153e
00000140: 2daf 543e f19a 843e 56cf 0abe 12a3 fcbd
00000150: 951a 2ebf 3898 dcbf 9793 93bd 2fce 88bf
00000160: 462e 80be 2c02 b5bf 2aba c63d e83d 4cbf
00000170: 7d80 3fbe 5623 3e3f 51f5 ce3e 0437 83bf
00000180: 1dce 413e 2d68 8fbf bbdc 9cbe 0248 313f
00000190: 98d0 cfbd 8a8c a03e c66d b5bd f878 09bf
000001a0: 720d b33d 4baf 603f a290 823f 1580 94be
000001b0: d382 03be fb1a 283f 7c05 38bd d041 02c0
000001c0: 4778 2e3f 2c95 dbbe f4ff aabf fc7b 31be
000001d0: 638c 92be 18ac fbbd 58ed 51be 0429 4abd
000001e0: 1b84 c4bd 58a4 ff3c 6b44 19be 12d0 62be
000001f0: 1a6c fbbd 1597 99be 3688 bfbe 00c8 a53c
00000200: c4c7 2ebe 1da1 0a3d 7fbd 87be 0c2e 0cbe
00000210: b603 0b3c 56b0 393b d49f 43be 3bf6 b5bd
00000220: 46fe d9bc 658e 5c3d be51 e03e b2b7 cfbc
00000230: ef2d 72bf 499b 1dc0 9dd3 b03e 66d2 29c0
00000240: e96c 37be 8b70 92c0 a568 383c 6ac2 3340
00000250: 78d7 d23f 03c9 52bf 7b5a 153e a6e0 2f3e
00000260: 7697 7cbf 93a0 cf3e 6436 bc3e 2dc8 88bd
00000270: ac49 2fbf da1a 1c3e b7ed 4e3f 860f 54bd
00000280: f87f 563e fd9f 013f 92a3 1d3d 135c d73d
00000290: 83de d6c0 2092 e13d c6e3 23c0 c1d8 ef3f
000002a0: c7fa adbf c089 f6bd f7a7 edbe cca4 b23c
000002b0: cd18 9b3e c25e 803d ac1d 263f 8856 57bd
000002c0: 43a0 f93e 14a6 6a3d 34ce 9bbc 6d2e 963e
000002d0: 7cc7 523f 1f38 cdbd a967 0f40 3eb0 1f3e
000002e0: ee0c 2dbf 24eb 313f 84e9 5abf 6303 41bf
000002f0: 5a4b 863f 5fcd 99bf ed85 24be 48b6 7ebe
00000300: aa74 68be f2e8 41be df8d 10be bea2 20bf
00000310: 6935 8a3f a5ea 3d3f e1c3 22be c7ed 67c0
00000320: fa9f 373f 3e79 6c3f af53 2abe 7737 16c0
00000330: 41c2 4f3e b9a0 f9be 3661 3bbe 0baa 03bd
00000340: 711f c1be 300f 0a3e 05e4 b9bd 2aa2 6d3e
00000350: 8494 1e3e f163 c73d e4e5 2bbe b3fd 0e3e
00000360: 63e7 c4bd bcf2 c03e 1f52 c3be f9a7 5fbe
00000370: c5dc 443e 0da6 993d 3235 17bf 0a84 d2bd
00000380: ffc6 2a3e 6ab9 9d3b e633 9cbe 9de3 88bd
00000390: 1b41 3f3e 2642 aabd f581 a0be 65c9 d3bd
000003a0: 5f57 81bd 39e3 9bbe 5068 c33d 142e 8bbb
000003b0: 43c8 5a3e 9523 63bd cae0 bd39 0265 47be
000003c0: 7c8e aebd 4cb3 aebe 82c2 0b3e e21a 483d
000003d0: b5a2 603e a5f1 4ebe e432 d03d 7d20 9d3b
000003e0: 3ff7 dfbc bb8a 84be 2b86 6abd 1032 5b3c
000003f0: e0e3 5a3e a35b 6dbf aea4 cbbf b4e5 f6bf

bias f4 [128]
-1.1874242 0.005602846 -5.248038 3.1148717 5.017328 -0.23290287 3.4741077 2.0615067
0.5196684 -0.060597975 -0.39672878 -5.039241 3.4276206 -0.21942662 -0.035848387 2.7293415
-5.291971 -2.7008903 -3.4445772 0.16589108 2.063769 -0.15902999 3.803817 -0.74845845
0.9059953 -0.4683395 -0.3390506 -0.6491339 -2.053815 -0.34777904 -0.32533944 0.5566531
1.2137827 -1.4456985 2.298677 2.0129976 -0.23291348 3.3237963 0.50714415 -0.19962394
1.1811441 -0.33868092 -3.9627872 2.6720924 3.3329616 0.93221235 0.13477899 -0.3714373
-0.038928747 -2.5555208 -0.53067994 4.5814333 -1.4729826 -0.3334041 0.8497602 2.2576768
3.0798082 -0.2299992 -1.6686765 -0.35930106 -0.3311164 3.9372885 3.7310264 -0.2234939
-0.2844127 -0.09748196 -0.98381704 1.7642528 0.8936945 0.02031651 -0.049912475 1.1778505
4.316836 -2.2841532 -0.27539948 1.1995646 2.6700957 0.86403966 0.034331206 -0.43451247
-0.20386665 -3.8639107 -1.6849422 -2.975882 1.0497246 -2.1007714 -0.028086111 -1.4169803
-0.008277777 1.3990674 5.702074 0.24947351 0.34576344 -3.2679896 4.469364 -0.5261402
-0.2847497 -0.093977824 3.949504 4.6143937 -0.0022807112 0.9524243 -0.28440246 -0.08658689
0.09322734 -0.1561586 -0.24880274 4.21699 -1.4523602 -3.3758485 -0.041979376 -0.09946133
-0.16736226 0.0029176006 -0.119135685 -0.1407301 4.443328 -0.17973238 -3.113452 -0.14209102
11.1641035 3.4674287 -0.426774 -6.3692284 -2.84137 -0.25784144 1.0774239 -0.37233016
00000000: 84fd 97bf 1498 b73b edef a7c0 0f5a 4740
00000010: f38d a040 177e 6ebe c857 5e40 baef 0340
00000020: fd08 053f 9535 78bd 0920 cbbe 7641 a1c0
00000030: 235e 5b40 5fb1 60be c2d5 12bd 88ad 2e40
00000040: d457 a9c0 63db 2cc0 f473 5cc0 5adf 293e
00000050: cb14 0440 c2d8 22be bd71 7340 f99a 3fbf
00000060: 4fef 673f 32ca efbe 0a98 adbe a42d 26bf
00000070: b471 03c0 1810 b2be e492 a6be d180 0e3f
00000080: 3b5d 9b3f a60c b9bf 861d 1340 f4d4 0040
00000090: df80 6ebe 14b9 5440 33d4 013f 386a 4cbe
000000a0: bb2f 973f 9667 adbe 4e9e 7dc0 9003 2b40
000000b0: 3e4f 5540 78a5 6e3f 8103 0a3e 082d bebe
000000c0: c073 1fbd a78d 23c0 a4da 07bf 1a9b 9240
000000d0: b28a bcbf f1b3 aabe e289 593f c77d 1040
000000e0: 941b 4540 e984 6bbe 3197 d5bf 4ff6 b7be
000000f0: 1788 a9be 89fc 7b40 23c9 6e40 96db 64be
00000100: 8b9e 91be 9fa4 c7bd 6fdb 7bbf 09d3 e13f
00000110: 2ac9 643f cf6e a63c 0671 4cbd cec3 963f
00000120: 8523 8a40 912f 12c0 2901 8dbe 558b 993f
00000130: d9e2 2a40 b431 5d3f e19e 0c3d 6b78 debe
00000140: 6bc2 50be 504a 77c0 30ac d7bf da74 3ec0
00000150: 605d 863f 0a73 06c0 d814 e6bc 9c5f b5bf
00000160: 839f 07bc a414 b33f 6477 b640 fc75 7f3e
00000170: e807 b13e be26 51c0 0805 8f40 20b1 06bf
00000180: b6ca 91be 7277 c0bd acc4 7c40 1da9 9340
00000190: fc77 15bb 14d2 733f 339d 91be 7854 b1bd
000001a0: faed be3d 0ae8 1fbe 25c6 7ebe 95f1 8640
000001b0: f0e6 b9bf e70d 58c0 91f2 2bbd 62b2 cbbd
000001c0: 0361 2bbe 3735 3f3b 69fd f3bd 8d1b 10be
000001d0: be2f 8e40 c40b 38be cc42 47c0 4f80 11be
000001e0: 2ba0 3241 5aea 5d40 1f82 dabe b8d0 cbc0
000001f0: 02d9 35c0 cb03 84be 07e9 893f 0fa2 bebe

weight f4 [128, 128]
-0.017788962 0.026864557 -0.17708111 0.011428343 -0.10308808 0.040828865 -0.0055429945 -0.0053828307
-0.04481479 0.089575544 -0.03964842 -0.048156656 -0.1029958 -0.10143996 -0.06612253 0.0343939
-0.042757824 -0.12496282 -0.10613738 -0.24366148 -0.0204279 0.083347574 -0.022421084 -0.11668035
-0.0169852 -0.053499747 -0.080411375 0.042372476 -0.08722479 -0.013575225 -0.1494625 -0.06340683
-0.06360769 -0.11208665 -0.046924293 -0.1522326 0.045067143 -0.2070995 -3.1154435e-05 -0.078014344
-0.13029285 -0.038501177 -0.07316715 0.026388984 -0.15138796 -0.04308175 -0.010586213 -0.108004585
-0.07194581 -0.031512957 0.016702907 -0.09524065 -0.088821605 0.018564245 0.0071202046 -0.17665476
-0.15265973 0.0360272 -0.0038516205 -0.03890157 0.06797834 -0.008944056 0.025981609 0.02330195
0.13063878 -0.020110521 -0.03145911 -0.092953354 -0.05430668 -0.00990142 0.060983296 -0.080700584
-0.028986713 -0.06553309 -0.022012763 0.043387346 0.027388416 -0.10174744 0.008037705 -0.029988673
-0.08233996 0.023100099 0.06341387 -0.057217706 0.055542465 0.057815727 -0.0881583 -0.0075424532
-0.03619164 0.008586674 -0.13922212 -0.025831496 -0.015183514 -0.14774016 -0.18785481 -0.073022366
-0.070631176 0.07221106 -0.25761157 -0.11968351 -0.056894302 0.026170446 -0.01886708 -0.08917548
-0.014297128 -0.054780286 -0.008439674 -0.15876064 0.0343047 0.060834944 -0.1680553 0.007090706
0.0127642695 0.002598512 -0.064852275 0.06831313 -0.034088343 0.01931467 -0.10317951 -0.11580621
-0.037308224 -0.034619603 -0.07796508 -0.023820145 -0.076022394 -0.009721907 0.00792947 0.07903531
-0.05367783 -0.04392303 -0.09302011 -0.25178707 -0.33717117 0.043811128 -0.15266187 -0.14493798
-0.04624529 -0.035986878 0.05968124 -0.20797367 -0.2058117 0.022787742 0.08268628 -0.12736015
0.13687538 -0.21857512 -0.049809456 -0.26774552 -0.15851572 0.021572577 -0.06911443 -0.05716051
0.025924642 -0.097511254 0.06112135 -0.07644003 -0.16100669 -0.1271845 -0.08214289 0.046361238
-0.069327794 -0.2524996 0.01626163 -0.24922758 -0.05912075 -0.28135145 -0.059321895 -0.14210412
-0.16111863 0.03541271 -0.20548029 -0.021863032 -0.06977294 -0.0028556844 0.04178025 -0.06154092
0.08964012 0.020970471 0.07865009 0.24213871 -0.26143193 -0.0785252 -0.18020709 -0.11073053
-0.21686834 -0.11230553 -0.19116364 -0.013129862 5.8071684e-05 -0.105874285 -0.016141705 0.085460134
0.008574447 0.113671094 0.041279137 -0.015207398 -0.12153516 0.033268988 -0.02027884 0.08993505
-0.058359887 -0.006869467 0.02924827 -0.50202185 -0.04969127 -0.11931204 -0.02276639 -0.010122817
-0.13105044 -0.13920209 0.0053124665 -0.07417661 0.0072930004 -0.059800006 -0.08684472 0.068996444
-0.15610576 -0.2294768 -0.26047075 0.1045676 -0.07500023 0.03842181 -0.26434386 -0.023991546
-0.0272569 0.056026176 -0.21934074 -0.17529029 -0.14049116 -0.175304 -0.008162218 -0.06854038
-0.1347308 -0.033805635 0.09995727 -0.24085896 -0.07576212 -0.20956208 -0.16196209 0.031872056
-0.11125627 0.11047978 -0.021848684 -0.04022136 -0.20837854 0.010721456 -0.29112777 0.10653997
-0.2453032 -0.16971795 -0.017783655 0.03556726 -0.17469656 0.14597902 -0.16087258 0.17346826
00000000: 28ba 91bc 0f13 dc3c c054 35be f23d 3b3c
00000010: d81f d3bd 2b3c 273d 02a2 b5bb 7562 b0bb
00000020: b78f 37bd 6273 b73d 6266 22bd ea3f 45bd
00000030: 76ef d2bd c1bf cfbd 406b 87bd 9ee0 0c3d
00000040: d422 2fbd 82ec ffbd 8e5e d9bd 6582 79be
00000050: 6958 a7bc 22b2 aa3d 6cac b7bc 1bf6 eebd
00000060: 8c24 8bbc 8d22 5bbd b8ae a4bd c38e 2d3d
00000070: e9a2 b2bd 9f6a 5ebc b30c 19be 71db 81bd
00000080: c044 82bd b08d e5bd b033 40bd dde2 1bbe
00000090: 5398 383d e411 54be d2ab 02b8 fcc5 9fbd
000000a0: 7d6b 05be 69b3 1dbd a9d8 95bd b62d d83c
000000b0: 7205 1bbe 7d76 30bd cc71 2dbc 8231 ddbd
000000c0: 5358 93bd bb13 01bd 89d4 883c 880d c3bd
000000d0: 1ae8 b5bd 0b14 983c 9b50 e93b fce4 34be
000000e0: d552 1cbe 4291 133d 786b 7cbb 4157 1fbd
000000f0: 3a38 8b3d 178a 12bc 62d7 d43c bbe3 be3c
00000100: 2cc6 053e d2be a4bc 45db 00bd 545e bebd
00000110: ae70 5ebd 9139 22bc 9fc9 793d 5946 a5bd
00000120: 8b75 edbc 3636 86bd 1c54 b4bc eeb6 313d
00000130: ac5d e03c f660 d0bd 94b0 033c ceaa f5bc
00000140: daa1 a8bd 6b3c bd3c 22df 813d 1d5d 6abd
00000150: 7f80 633d 2fd0 6c3d 578c b4bd af26 f7bb
00000160: af3d 14bd 1faf 0c3c 3e90 0ebe 939c d3bc
00000170: 46c4 78bc 3249 17be 035d 40be c08c 95bd
00000180: 14a7 90bd 64e3 933d aae5 83be a11c f5bd
00000190: 000a 69bd 6763 d63c 228f 9abc a2a1 b6bd
000001a0: 803e 6abc 4b61 60bd 8f46 0abc 2692 22be
000001b0: 1683 0c3d 102e 793d b016 2cbe 2759 e83b
000001c0: 3a21 513c cc4b 2a3b 45d1 84bd c1e7 8b3d
000001d0: 38a0 0bbd cc39 9e3c c74f d3bd ce2b edbd
000001e0: 82d0 18bd 49cd 0dbd 28ac 9fbd 7722 c3bc
000001f0: a1b1 9bbd a248 1fbc 9cea 013c 44dd a13d
00000200: 49dd 5bbd a3e8 33bd 5481 bebd 3cea 80be
00000210: b3a1 acbe 4c73 333d 6553 1cbe 9f6a 14be
00000220: b46b 3dbd fa66 13bd 5174 743d 0df7 54be
00000230: 4dc0 52be 5cad ba3c 6d57 a93d b36a 02be
00000240: 0f29 0c3e 28d2 5fbe 0005 4cbd f115 89be
00000250: f251 22be f9b8 b03c de8b 8dbd 2421 6abd
00000260: ea5f d43c fbb3 c7bd 615a 7a3d 978c 9cbd
00000270: f0de 24be a73c 02be 883a a8bd 48e5 3d3d
00000280: bbfb 8dbd a147 81be 1c37 853c 8435 7fbe
00000290: 9928 72bd 4c0d 90be 84fb 72bd be83 11be
000002a0: 48fc 24be eb0c 113d 6d69 52be 1a1a b3bc
000002b0: 1de5 8ebd 6f26 3bbb c421 2b3d 5512 7cbd
000002c0: 3d95 b73d 44ca ab3c 4c13 a13d 36f3 773e
000002d0: 68da 85be d2d1 a0bd 3588 38be b0c6 e2bd
000002e0: bc12 5ebe 7100 e6bd 67c0 43be a21e 57bc
000002f0: ff91 7338 9ed4 d8bd 9c3b 84bc b905 af3d
00000300: d67b 0c3c 64cc e83d 5014 293d 7328 79bc
00000310: 6de7 f8bd 1045 083d cf1f a6bc de2f b83d
00000320: c70a 6fbd 4419 e1bb 119a ef3c 8184 00bf
00000330: 1389 4bbd df59 f4bd 9580 babc 2cda 25bc
00000340: 1632 06be fe8a 0ebe 3314 ae3b e8e9 97bd
00000350: 1ffa ee3b daf0 74bd a5db b1bd 024e 8d3d
00000360: 30da 1fbe f7fb 6abe 6c5c 85be 8a27 d63d
00000370: b899 99bd 3060 1d3d 1458 87be eb89 c4bc
00000380: dd49 dfbc b47b 653d dc9a 60be 4c7f 33be
00000390: eadc 0fbe e482 33be d3ba 05bc e65e 8cbd
000003a0: dff6 09be c777 0abd 66b6 cc3d bba3 76be
000003b0: 2c29 9bbd 7197 56be 64d9 25be 468c 023d
000003c0: 54da e3bd 3943 e23d 03fc b2bc 27bf 24bd
000003d0: 2f61 55be 0ca9 2f3c b30e 95be a131 da3d
000003e0: c330 7bbe 8bca 2dbe 07af 91bc faae 113d
000003f0: a8e3 32be 867b 153e c8bb 24be aaa1 313e

bias f4 [128]
-0.21335396 -0.29920018 1.8223553 -0.017061971 -0.31277823 0.72794527 7.1462026 0.0123502975
-0.1867496 2.0623722 -0.3205097 -0.03388592 -0.33173302 -0.13476446 -0.18036179 0.5525591
-0.31072274 -0.57085437 -0.1828237 -0.368311 2.2133665 -0.28679785 -0.39048943 -0.3097562
-0.21858664 2.5887263 -0.2531472 -0.10929749 -0.24181443 -0.08522945 0.83093333 0.09884746
-0.25998408 -0.10763975 0.025850927 -0.53985804 0.865284 0.04964462 0.52421165 1.066899
-0.094170876 -0.13572937 6.7592063 1.0185515 2.4265049 -0.3169902 1.5311493 -0.21667393
-0.09896264 -1.0638748 1.7480788 6.3021936 0.40658754 2.8875947 -0.3413182 0.9971305
-0.059431605 -0.3013225 -0.1302643 -0.22710054 0.06145769 0.6364688 1.9896579 -0.09596015
-0.09579735 -0.31755203 5.690529 0.83672404 -0.062764265 0.013429219 -0.24614139 1.1515865
-0.10547723 -0.17099005 1.8643357 0.9783475 -0.120816484 -0.23779859 -0.087831624 3.9418957
-0.56420094 0.7674805 -0.26516947 -0.17350987 0.5534896 -0.12276467 -0.2332512 -0.09201172
0.30229604 6.6489205 -1.6028844 1.1827859 -0.2581401 -0.042324245 -0.30952713 -0.22674288
0.15356186 1.7657218 -1.3223495 0.12712003 5.0508337 -0.17332575 -0.17083606 0.611034
0.54239434 7.7414975 -0.101963386 -0.46307415 0.83100414 6.065698 0.94378346 -0.063506335
-0.17674436 1.6923352 -0.16128333 -0.41288584 0.7440596 -0.03514553 -0.46252656 -0.041184094
-0.28000185 -0.5730613 6.430523 0.745119 0.3738825 -0.050775073 -0.039153382 -0.0999407
00000000: 7679 5abe c430 99be f042 e93f 8cc5 8bbc
00000010: 7824 a0be 9f5a 3a3f b1ad e440 e758 4a3c
00000020: 4a3b 3fbe e8fd 0340 d919 a4be f6cb 0abd
00000030: e9d8 a9be b2ff 09be c3b0 38be 8374 0d3f
00000040: 0d17 9fbe 8323 12bf 2336 3bbe 4293 bcbe
00000050: cca7 0d40 2bd7 92be 3bee c7be 5d98 9ebe
00000060: 2dd5 5fbe b1ad 2540 839c 81be 5dd7 dfbd
00000070: 349e 77be c78c aebd 0cb8 543f 8970 ca3d
00000080: a21c 85be 3b72 dcbd 53c5 d33c 2334 0abf
00000090: 4183 5d3f 2858 4b3d bc32 063f 2590 883f
000000a0: a9dc c0bd a4fc 0abe 6b4b d840 e55f 823f
000000b0: db4b 1b40 8a4c a2be b3fc c33f c5df 5dbe
000000c0: edac cabd 0d2d 88bf 0cc1 df3f 92ab c940
000000d0: 3e2c d03e 5ace 3840 42c1 aebe f243 7f3f
000000e0: 8e6e 73bd f146 9abe 0164 05be 0b8d 68be
000000f0: 0fbb 7b3d 9fef 223f 1cad fe3f c186 c4bd
00000100: 6731 c4bd 2e96 a2be d018 b640 8c33 563f
00000110: 8d8a 80bd 3a06 5c3c 7d0c 7cbe 3067 933f
00000120: 7204 d8bd 0418 2fbe 8da2 ee3f fb74 7a3f
00000130: a26e f7bd 7981 73be 11e1 b3bd 0548 7c40
00000140: 796f 10bf 9a79 443f 4bc4 87be 92ac 31be
00000150: 7fb1 0d3f 0b6c fbbd 67d9 6ebe a470 bcbd
00000160: 8cc6 9a3e f5c3 d440 512b cdbf 8765 973f
00000170: f02a 84be 305c 2dbd 577a 9ebe 492f 68be
00000180: 523f 1d3e 2c03 e23f c042 a9bf c12b 023e
00000190: 6ea0 a140 4e7c 31be a6ef 2ebe b96c 1c3f
000001a0: 5bda 0a3f 59ba f740 2ed2 d0bd 0e18 edbe
000001b0: b0bc 543f 331a c240 cb9b 713f 9c0f 82bd
000001c0: 79fc 34be 719e d83f 7527 25be c665 d3be
000001d0: b17a 3e3f c2f4 0fbd 48d0 ecbe a7b0 28bd
000001e0: 675c 8fbe 25b4 12bf d8c6 cd40 1ec0 3e3f
000001f0: 876d bf3e 86f9 4fbd 4c5f 20bd b6ad ccbd

weight f4 [128, 128]
0.012498005 -0.07951108 -0.062478337 -0.06975611 -0.17851634 -0.021670097 -0.07817861 -0.04103708
-0.12100128 -0.062375627 0.022976123 -0.22001587 -0.0420216 -0.08310747 -0.077579685 -0.14393115
-0.14219552 -0.22210677 -0.06835376 -0.07268287 -0.15289333 -0.027681153 0.010546079 -0.078911304
-0.013238862 0.07181489 -0.060219828 0.0025145968 -0.07470555 -0.01682678 0.008846128 -0.27906924
-0.15281658 -0.16247857 0.054580864 -0.07763456 -0.02031356 -0.06897474 -0.0560063 -0.06333128
-0.06557766 -0.022231946 -0.047486525 -0.15264502 -0.117728725 -0.19171488 0.07881899 0.029664742
0.0601667 0.05671087 -0.025140552 0.047338612 -0.102437936 0.010691717 -0.1008887 -0.17824161
-0.068975866 -0.061269116 -0.08541993 0.068096355 0.06982662 -0.15364745 -0.004354075 -0.06492064
0.07622788 -0.052425873 -0.040714823 -0.04691665 -0.21656206 -0.0038151327 0.05022128 0.063771166
0.00459094 -0.07050659 0.004599454 -0.0651464 -0.089834094 -0.08137307 -0.054459438 -0.11544913
-0.06711511 -0.20540972 0.033717785 -0.1013405 0.026537795 0.019621339 -0.008400878 0.025679873
0.028484453 -0.18287845 -0.02744772 0.02683219 -0.031331062 -0.09114513 -0.1999018 -0.04555697
-0.025767677 0.07526409 -0.06558671 0.05296448 -0.06496692 -0.011134144 0.08635482 -0.0717389
-0.19131295 0.024668256 -0.08193262 -0.12320381 -0.059749216 -0.20871745 -0.17504232 -0.03204136
-0.09581316 -0.1938105 -0.076946676 0.05016481 -0.08598144 -0.047366884 -0.19505489 0.06233131
-0.08076668 -0.06578125 -0.03387573 -0.080563635 -0.017749893 -0.12589999 -0.13115007 0.05675743
-0.21324089 -0.19008462 -0.22326209 -0.058943994 0.21200052 -0.07600441 -0.2988211 -0.06583224
-0.07709197 0.008701227 0.04768444 -0.14562207 -0.26242593 -0.09979506 0.028187739 -0.22738527
-0.46370873 -0.35815057 0.16124879 -0.12842168 -0.2738749 -0.113836475 -0.39578736 -0.13570859
-0.18518366 0.031313308 -0.026044855 0.11340429 -0.02918897 -0.25718313 0.07887263 -0.07441292
0.013772282 -0.16956013 -0.3190356 0.16156465 -0.0226532 -0.16190125 -0.055316012 -0.21710566
-0.37750557 -0.10784698 -0.31222445 -0.16204567 -0.26646483 -0.03791289 0.07895619 -0.10208673
-0.024649508 -0.036701992 -0.07745599 -0.24520434 -0.35092258 -0.021096315 -0.33944544 0.10354728
0.038049087 -0.22949731 0.16647123 0.035196263 -0.1267267 -0.13944729 -0.25344533 0.06271766
0.03365508 0.024686052 -0.101039074 -0.30982107 -0.25700605 0.12970266 -0.010080695 -0.29256213
-0.44871715 0.04428059 -0.09561632 -0.11291216 -0.12968622 -0.18478556 -0.31028703 0.15622312
-0.09930115 -0.10577779 -0.19991949 -0.19832417 -0.09657624 -0.018789947 -0.018807156 -0.054185234
-0.10088156 0.04349334 0.0026807718 -0.4479407 -0.0039744764 -0.29343846 -0.047891945 0.031099506
-0.29777437 0.07857441 -0.30133533 -0.5261167 -0.27874938 -0.42419505 0.02216785 0.01208699
-0.2678268 0.064793415 -0.065492906 -0.07421926 -0.23797408 -0.0970925 -0.22180985 0.08671406
-0.044076014 -0.15345559 -0.057565782 -0.0067925863 -0.23643433 -0.06872411 -0.5067491 0.11639348
-0.27229357 0.11355896 -0.0327153 -0.20992786 -0.26151493 0.010802897 -0.27901384 0.043148763
00000000: 6fc4 4c3c b5d6 a2bd 49e9 7fbd 4bdc 8ebd
00000010: fdcc 36be 7d85 b1bc 1b1c a0bd 7f16 28bd
00000020: 85cf f7bd 967d 7fbd 6c38 bc3c d74b 61be
00000030: d71e 2cbd 4034 aabd 19e2 9ebd b062 13be
00000040: b49b 11be f56f 63be 0efd 8bbd c2da 94bd
00000050: 1290 1cbe 96c3 e2bc 76c9 2c3c 409c a1bd
00000060: d0e7 58bc af13 933d 11a9 76bd efcb 243b
00000070: 39ff 98bd 51d8 89bc 5aef 103c 2ae2 8ebe
00000080: f37b 1cbe c860 26be 2f90 5f3d defe 9ebd
00000090: 9f68 a6bc a142 8dbd dd66 65bd d5b3 81bd
000000a0: 954d 86bd c51f b6bc 3b81 42bd fa4e 1cbe
000000b0: c21b f1bd e850 44be da6b a13d 7903 f33c
000000c0: 5c71 763d a849 683d 8ff3 cdbc 22e6 413d
000000d0: fbca d1bd 502c 2f3c bc9e cebd f884 36be
000000e0: 3843 8dbd 53f5 7abd a5f0 aebd 1a76 8b3d
000000f0: 4201 8f3d c255 1dbe a1ac 8ebb 1df5 84bd
00000100: 5d1d 9c3d 83bc 56bd 96c4 26bd ac2b 40bd
00000110: 72c2 5dbe 4e07 7abb d4b4 4d3d 759a 823d
00000120: 996f 963b c265 90bd 04b7 963b 7a6b 85bd
00000130: f0fa b7bd eda6 a6bd dc10 5fbd 9870 ecbd
00000140: a673 89bd ed56 52be a91b 0a3d 9c8b cfbd
00000150: ca65 d93c eebc a03c d6a3 09bc 995e d23c
00000160: 3a58 e93c 7d44 3bbe 0ada e0bc 2ecf db3c
00000170: 0055 00bd 4caa babd 0fb3 4cbe f299 3abd
00000180: bc16 d3bc 0f24 9a3d 5352 86bd 48f1 583d
00000190: 600d 85bd fc6b 36bc ccda b03d d8eb 92bd
000001a0: 8be7 43be 1515 ca3c 4acc a7bd 4752 fcbd
000001b0: 98bb 74bd 07ba 55be 4b3e 33be cd3d 03bd
000001c0: b139 c4bd 4276 46be 3896 9dbd 9e79 4d3d
000001d0: 0a17 b0bd c703 42bd 78bc 47be 1e4f 7f3d
000001e0: 0069 a5bd 52b8 86bd 47c1 0abd 8cfe a4bd
000001f0: 3968 91bc edeb 00be 344c 06be 7b7a 683d
00000200: d25b 5abe 8ba5 42be d19e 64be 426f 71bd
00000210: aa16 593e 33a8 9bbd 14ff 98be 0ed3 86bd
00000220: 65e2 9dbd 978f 0e3c c250 433d f41d 15be
00000230: b15c 86be 5a61 ccbd f9e9 e63c afd7 68be
00000240: 3b6b edbe 835f b7be 671e 253e f980 03be
00000250: 5539 8cbe 1923 e9bd a4a4 cabe 31f7 0abe
00000260: c9a0 3dbe 6242 003d 055c d5bc 8240 e83d
00000270: b51d efbc 82ad 83be f987 a13d cd65 98bd
00000280: 23a5 613c 2ca1 2dbe a258 a3be 3471 253e
00000290: 3493 b9bc 71c9 25be 0b93 62bd f250 5ebe
000002a0: 6948 c1be e1de dcbd e2db 9fbe 4def 25be
000002b0: 146e 88be 8c4a 1bbd c8b3 a13d d912 d1bd
000002c0: c4ed c9bc d454 16bd 3fa1 9ebd d916 7bbe
000002d0: 20ac b3be 2ed2 acbc cbcb adbe 9910 d43d
000002e0: 5cd9 1b3d 5801 6bbe 6f77 2a3e f529 103d
000002f0: a5c4 01be 45cb 0ebe 96c3 81be 1e72 803d
00000300: e9d9 093d 673a ca3c 93ed cebd dea0 9ebe
00000310: 4c96 83be c6d0 043e 8029 25bc b4ca 95be
00000320: 41be e5be 905f 353d 7dd2 c3bd 7e3e e7bd
00000330: 77cc 04be 6d38 3dbe f1dd 9ebe f4f8 1f3e
00000340: 675e cbbd 07a2 d8bd b2b7 4cbe 7e15 4bbe
00000350: c4c9 c5bd 60ed 99bc 7711 9abc 56f1 5dbd
00000360: fe9a cebd 1326 323d e3af 2f3b 7c58 e5be
00000370: 533c 82bb 913d 96be 582a 44bd 64c4 fe3c
00000380: e275 98be 9feb a03d a048 9abe 96af 06bf
00000390: 3db8 8ebe 1830 d9be 5a99 b53c 8308 463c
000003a0: 9820 89be 69b2 843d 2521 86bd 4400 98bd
000003b0: 7aaf 73be 6fd8 c6bd 1f22 63be 2497 b13d
000003c0: 0d89 34bd 7623 1dbe 19ca 6bbd 5894 debb
000003d0: d71b 72be 3abf 8cbd 4fba 01bf b45f ee3d
000003e0: 106a 8bbe 9a91 e83d 7a00 06bd 54f7 56be
000003f0: 49e5 85be a2fe 303c e7da 8ebe c2bc 303d

bias f4 [128]
-0.23603342 -0.40402916 -0.038480032 -0.22924496 0.23731218 -0.032534078 -4.0841327 -0.112187386
0.91209704 0.61659586 -0.45705372 -0.30978808 -0.45406243 -0.27576733 0.64720786 -0.3356004
-0.36133108 -0.12387794 -0.23333815 -2.2889657 -0.80216813 2.110767 0.2622549 -0.14655113
-0.0112965405 1.5566851 0.36157697 0.25229222 -0.50449336 1.8631214 2.035642 -0.45212036
-0.080415785 -0.22593243 -0.56781834 1.8606541 2.815199 -0.3275992 -0.19226512 0.25070822
-0.22917874 2.7325397 -0.45949024 -0.250189 2.095648 -0.2329647 0.8051093 -0.03286544
-0.5173316 -0.062150676 0.48883924 -0.27193004 -0.0544845 -0.09127426 -0.15688479 2.8064842
0.026905742 -0.023105701 0.43233186 -0.7154162 -0.027564911 0.7018361 0.37584636 -0.1353218
-0.14926517 -0.18557252 0.33551455 -0.07903219 -0.16197792 -0.57208246 -0.47743347 -0.36528277
1.0192561 0.8619816 -0.30790433 -0.020092346 0.008404942 -9.820022 -0.04959223 -0.56560344
-0.31557348 -0.49896508 -0.082756706 -0.105904296 -0.023331808 -0.05398033 -8.655247 -0.2682395
-0.21684714 0.2273058 -0.103276335 -0.20975253 -1.3173493 -0.6745317 -0.11072755 -0.12318309
-0.16132396 -0.14856274 -0.07473391 -0.26743343 -0.2302967 -0.15358612 -0.38020882 0.33891785
-0.5433579 -1.4110768 0.30203143 1.0528148 -0.21091175 -0.3183271 -0.17325102 -0.21615903
0.16981776 -0.100108944 -0.2511294 0.8041393 -0.27616572 -0.29133797 0.58122474 0.45586428
-0.87358326 0.56045187 -16.315105 1.0384935 2.4629002 0.1958845 0.2421981 0.11938818
00000000: bfb2 71be e9dc cebe 3d9d 1dbd 31bf 6abe
00000010: f701 733e 7442 05bd 37b1 82c0 80c2 e5bd
00000020: 317f 693f 3ad9 1d3f f202 eabe 8b9c 9ebe
00000030: df7a e8be 6031 8dbe 6aaf 253f d1d3 abbe
00000040: 6300 b9be b8b3 fdbd 32f0 6ebe 6a7e 12c0
00000050: e45a 4dbf ce16 0740 4646 863e 8011 16be
00000060: 2015 39bc 7541 c73f 9e20 b93e 722c 813e
00000070: 7a26 01bf c37a ee3f f547 0240 527c e7be
00000080: 08b1 a4bd d55a 67be 8b5c 11bf ea29 ee3f
00000090: 382c 3440 15bb a7be 26e1 44be d45c 803e
000000a0: d5ad 6abe eee1 2e40 4e42 ebbe c618 80be
000000b0: 191f 0640 4c8e 6ebe a51b 4e3f e99d 06bd
000000c0: d86f 04bf b591 7ebd 2349 fa3e 6a3a 8bbe
000000d0: 242b 5fbd 00ee babd 68a6 20be 709d 3340
000000e0: 6e69 dc3c 2b48 bdbc 9a5a dd3e 8425 37bf
000000f0: cfcf e1bc 88ab 333f ef6e c03e cc91 0abe
00000100: f8d8 18be b906 3ebe 90c8 ab3e a1db a1bd
00000110: 8add 25be ff73 12bf 2972 f4be 5806 bbbe
00000120: fc76 823f d3aa 5c3f a3a5 9dbe b498 a4bc
00000130: e2b4 093c cf1e 1dc1 3921 4bbd 63cb 10bf
00000140: d992 a1be 5a78 ffbe 597c a9bd 5ae4 d8bd
00000150: 5922 bfbc 7a1a 5dbd e47b 0ac1 b056 89be
00000160: 2d0d 5ebe dac2 683e 8b82 d3bd 5ec9 56be
00000170: e79e a8bf 1cae 2cbf 20c5 e2bd 6a47 fcbd
00000180: 1c32 25be d520 18be 180e 99bd 09ed 88be
00000190: e6d2 6bbe ae45 1dbe bbaa c2be a486 ad3e
000001a0: 8119 0bbf 2a9e b4bf dda3 9a3e a3c2 863f
000001b0: 40f9 57be c5fb a2be b768 31be cb58 5dbe
000001c0: b5e4 2d3e eb05 cdbd 0894 80be 13dc 4d3f
000001d0: 9865 8dbe 402a 95be 25cb 143f 0b67 e93e
000001e0: 27a3 5fbf c679 0f3f 5685 82c1 5bed 843f
000001f0: 28a0 1d40 f295 483e c702 783e ca81 f43d

weight f4 [1, 128]
-0.14342508 0.09554423 -0.067817844 0.055399284 0.07978073 -0.52389085 0.8935636 -0.1144324
-0.008892023 -2.9874332 -0.03857492 -0.020954648 -0.14067724 0.14113626 -0.15398912 0.28950673
-0.065270185 -0.12225282 0.026676804 -0.110697135 -0.8982178 -0.10470545 0.0016672612 0.11746091
0.1369331 -0.34217802 -0.14809673 0.0030441792 -0.11528074 -0.005561072 -1.0841261 0.01919308
0.1039851 0.16644065 0.0025394238 -0.0023101624 -1.36109 -0.63961583 -0.5076896 -0.47840106
0.039426904 -0.045385882 0.61056304 -0.7037663 0.17641287 -0.0076753865 0.15959528 0.12941886
-0.003743818 0.07811695 -0.44434848 0.52282095 -0.9586582 0.3536984 -0.15736443 -0.5171654
0.013168183 -0.13036141 0.14840923 -0.05543786 -0.00082444685 -0.03555789 -0.55856586 -0.3545021
0.17076817 -0.04626169 0.42867735 -0.53952473 0.032007933 0.03201579 -0.12772526 -0.62359124
0.018091941 0.145283 -1.598599 -0.9439208 0.14198537 -0.11985555 0.017274942 -0.4261915
0.2928034 -0.6700618 -0.0076921103 0.109945424 -0.42637244 -0.052546423 0.14309093 0.0038873884
-0.9622237 0.48022228 -0.6551351 -1.4575481 0.08620765 0.11728465 0.26115495 0.020153161
-0.9121778 0.3870304 -0.27623603 0.07958823 0.61259675 0.060512748 -0.041247707 -0.6105219
-0.11176568 1.0856836 -0.016677687 -0.09226412 -0.6575156 0.22774966 -1.2147561 -0.011949724
0.15090168 0.36259064 -0.02011358 0.082077704 -0.6375647 0.15529156 0.14197883 -0.039454576
0.06080202 0.05435921 0.57761097 -0.48564684 -0.85768133 -0.04984782 0.09228025 -0.051235657
00000000: 06de 12be b1ac c33d 15e4 8abd 5cea 623d
00000010: 1464 a33d b61d 06bf 96c0 643f 895b eabd
00000020: d9af 11bc 1b32 3fc0 bc00 1ebd 15a9 abbc
00000030: b20d 10be 0686 103e 53af 1dbe 3a3a 943e
00000040: 60ac 85bd b05f fabd 5089 da3c 2eb5 e2bd
00000050: 9af1 65bf d06f d6bd 0188 da3a 588f f03d
00000060: 3138 0c3e f531 afbe aba6 17be da80 473b
00000070: 4f18 ecbd a739 b6bb a5c4 8abf ce3a 9d3c
00000080: 24f6 d43d 6b6f 2a3e 766c 263b 1866 17bb
00000090: 3238 aebf ddbd 23bf f2f7 01bf fcf0 f4be
000000a0: 1b7e 213d 8ce6 39bd dc4d 1c3f 072a 34bf
000000b0: 93a5 343e cf81 fbbb f26c 233e 6186 043e
000000c0: d85a 75bb c8fb 9f3d a581 e3be 98d7 053f
000000d0: a06a 75bf f517 b53e 2424 21be f464 04bf
000000e0: 5dbf 573c 767d 05be 97f8 173e cf12 63bd
000000f0: b11f 58ba 26a5 11bd 2cfe 0ebf 4d81 b5be
00000100: dadd 2e3e e67c 3dbd 997b db3e 4b1e 0abf
00000110: c01a 033d fd22 033d 69ca 02be ada3 1fbf
00000120: 8d35 943c 11c5 143e e49e ccbf cba4 71bf
00000130: 9d64 113e d476 f5bd 2e84 8d3c c635 dabe
00000140: 54ea 953e 2c89 2bbf 190e fcbb 112b e13d
00000150: 7d4d dabe eb3a 57bd 6e86 123e 8ec3 7e3b
00000160: 4b54 76bf b2df f53e efb6 27bf f090 babf
00000170: a38d b03d ef32 f03d 1ab6 853e 3e18 a53c
00000180: 7c84 69bf d928 c63e cf6e 8dbe 27ff a23d
00000190: 24d3 1c3f 37dc 773d 5bf3 28bd 2a4b 1cbf
000001a0: 68e5 e4bd aef7 8a3f a59f 88bc f9f4 bcbd
000001b0: f152 28bf 3537 693e 217d 9bbf c6c8 43bc
000001c0: f885 1a3e 7ba5 b93e 3cc5 a4bc 5b18 a83d
000001d0: 7137 23bf c004 1f3e e662 113e 1f9b 21bd
000001e0: 8a0b 793d c3a7 5e3d 50de 133f b4a6 f8be
000001f0: 0191 5bbf 3a2d 4cbd 6dfd bc3d 7bdc 51bd

weight f4 [5, 128]
0.023368524 -0.18622124 0.29149482 -0.023117179 -0.15443605 0.118776195 -0.3228756 0.060878064
1.0170738 0.9061116 -0.3362804 -0.4799446 0.2456587 -0.25007188 -3.0599866 -0.3024784
-0.25896615 -0.104044735 -0.038823623 -0.7486811 0.6946089 0.4990985 0.24793868 -0.090897754
-0.04509535 0.008214707 0.10020802 1.2123903 -1.2008607 -1.7282379 -1.5587673 0.04924549
-0.034003105 0.15717112 0.80450726 0.54259396 1.6392708 -0.14516872 0.14493272 0.44698855
-0.18061525 0.10133344 0.3730693 -0.31181517 0.78655124 0.3955706 -0.30844423 -0.0039495206
-0.56665105 -0.05267196 0.64008516 0.099525295 -0.06999748 -0.29134429 -0.2735698 -0.21503869
0.43504962 0.6123501 0.7575765 0.47108144 -0.0402909 -0.3587731 0.8357191 0.14511596
0.11858838 -0.07908132 0.5054319 0.07167809 -0.051170137 -0.51309866 -0.6576358 -0.030523293
-0.8354044 1.4663007 -0.022599667 -0.0084223645 -0.032567054 -1.1501393 0.08773444 0.7413917
-0.50012344 0.13585338 0.012424395 -0.15967211 -0.89803666 -0.097699314 -0.68491346 -0.020725312
-0.22239035 -0.5918383 0.08149714 0.6110909 -0.9190675 -1.1313177 -0.031610064 -0.12876208
0.017173052 0.09946498 -0.093136445 -0.06742691 0.07609154 -0.021127146 -0.192746 1.3957558
0.295432 0.37716457 0.3693261 0.3525035 -0.11250616 0.03190535 0.025686296 1.038291
0.4007946 -0.15083688 0.16297525 -0.06530387 -0.9169836 0.18616237 0.30828708 0.9691173
-0.35576376 1.0205643 -0.9848907 -0.4918104 -0.011510245 0.2147746 0.32330546 0.12855408
0.039370976 0.1625283 -0.48635045 -0.051775023 -1.3143948 -1.4590509 0.026822753 -0.07071159
0.20685539 1.404395 0.033630162 -0.22065239 0.80598515 -0.17378023 -0.39058113 0.7150362
-0.10419836 0.13184148 0.12444608 -0.80272335 1.0606611 -0.59948504 0.47230816 -0.08299143
-0.5674638 -1.1687915 0.24075559 -0.026724916 -0.6351034 0.8808361 0.6366491 -0.13584551
0.029463474 0.19009277 1.4767687 0.30428165 0.75840473 -1.2117271 -0.12696365 0.6354288
-0.17323512 0.6234056 -0.025194298 -0.3577621 0.529041 -0.7123603 0.7121352 -0.028164664
-0.15289617 -0.038025055 0.61606985 0.013077873 0.07678419 -0.2077045 -0.7295371 -0.5801315
0.5591055 0.71512866 1.1388804 0.23299134 0.07526077 -0.11999765 -0.38981074 -0.012338594
0.02905259 -0.031832762 -0.4531473 -0.07593156 -0.15553649 0.4611617 -0.2013135 0.056357842
0.025081456 0.7657483 0.084641874 -0.71120834 0.018505143 -1.0303826 0.0029084296 0.8041984
-1.1256492 0.66505784 -0.03033025 -0.023510955 0.7686615 1.8567576 -0.7449021 -0.17237176
-0.17182478 -0.11211062 0.079630055 -0.8152774 0.061171945 0.6131657 -0.0037713211 -0.0761472
-1.2314582 -0.028391384 -0.021948513 -0.16810675 0.087743305 -0.047163546 0.2573966 1.3031442
-0.04781664 0.8214555 0.19225943 0.21278241 -0.14926131 -0.22585955 0.015342064 -0.12794523
-0.22747037 -0.009489407 -0.007019425 -0.31917265 1.0179535 0.36734322 -0.8941657 -0.059030857
0.58445334 0.7308624 -1.0342239 -0.2889613 -0.2595653 -0.47297537 -1.8455359 -0.022660097
00000000: 596f bf3c c8b0 3ebe cf3e 953e 3d60 bdbc
00000010: 7c24 1ebe ef40 f33d f34f a5be 475b 793d
00000020: 792f 823f eef6 673f f22c acbe 4cbb f5be
00000030: f48d 7b3e 6c09 80be d2d6 43c0 73de 9abe
00000040: 3697 84be 6815 d5bd 8505 1fbd 91a9 3fbf
00000050: e4d1 313f d789 ff3e a3e3 7d3e 9a28 babd
00000060: e7b5 38bd fa96 063c dd39 cd3d 9b2f 9b3f
00000070: ceb5 99bf e636 ddbf b085 c7bf a4b5 493d
00000080: d746 0bbd 77f1 203e 30f4 4d3f 70e7 0a3f
00000090: a0d3 d13f 1ca7 14be 3e69 143e afdb e43e
000000a0: 34f3 38be e887 cf3d f002 bf3e 3da6 9fbe
000000b0: 6c5b 493f 3b88 ca3e 67ec 9dbe fb6a 81bb
000000c0: 0b10 11bf 8ebe 57bd 9fdc 233f ebd3 cb3d
000000d0: d75a 8fbd 142b 95be 5711 8cbe 1a33 5cbe
000000e0: d3be de3e fac2 1c3f 89f0 413f 9631 f13e
000000f0: 1208 25bd 1cb1 b7be b0f1 553f 4799 143e
00000100: 77de f23d 63f5 a1bd fc63 013f f6cb 923d
00000110: c797 51bd 6f5a 03bf d25a 28bf fc0b fabc
00000120: 10dd 55bf beaf bb3f f022 b9bc f5fd 09bc
00000130: 0865 05bd c437 93bf 1dae b33d d9cb 3d3f
00000140: 1708 00bf 261d 0b3e b18f 4b3c 1681 23be
00000150: bbe5 65bf 9416 c8bd 7d56 2fbf 21c8 a9bc
00000160: 4cba 63be b782 17bf f9e7 a63d 7470 1c3f
00000170: 0248 6bbf 05cf 90bf 8e79 01bd 35da 03be
00000180: 80ae 8c3c 4cb4 cb3d 52be bebd 1f17 8abd
00000190: e2d5 9b3d d612 adbc 355f 45be 20a8 b23f
000001a0: dd42 973e b71b c13e 5018 bd3e 577b b43e
000001b0: a169 e6bd 2faf 023d 116c d23c b8e6 843f
000001c0: f334 cd3e fc74 1abe fce2 263e 09be 85bd
000001d0: 70bf 6abf 59a1 3e3e ced7 9d3e 1218 783f
000001e0: ab26 b6be daa1 823f cc21 7cbf 93ce fbbe
000001f0: 7795 3cbc dfed 5b3e 4b88 a53e aea3 033e
00000200: 7643 213d d26d 263e ed02 f9be 0c12 54bd
00000210: 173e a8bf 2ec2 babf 64bb db3c 3dd1 90bd
00000220: e6d1 533e 37c3 b33f c8bf 093d b3f2 61be
00000230: 0b55 4e3f 72f3 31be 40fa c7be 9d0c 373f
00000240: f365 d5bd 7401 073e 96dd fe3d 477f 4dbf
00000250: bec3 873f da77 19bf 60d2 f13e 69f7 a9bd
00000260: 4f45 11bf f69a 95bf a288 763e 36ee dabc
00000270: 2396 22bf 7a7e 613f 6ffb 223f 161b 0bbe
00000280: 625d f13c aea7 423e c206 bd3f ceca 9b3e
00000290: d026 423f e019 9bbf c202 02be 76ab 223f
000002a0: 8c64 31be 8297 1f3f 4664 cebc 982c b7be
000002b0: 3b6f 073f 3f5d 36bf 7e4e 363f 95b9 e6bc
000002c0: d090 1cbe 29c0 1bbd c1b6 1d3f 9344 563c
000002d0: 0841 9d3d 7db0 54be f2c2 3abf 7f83 14bf
000002e0: 8a21 0f3f ac12 373f d5c6 913f 4895 6e3e
000002f0: 5222 9a3d 54c1 f5bd 4695 c7be d027 4abc
00000300: b2ff ed3c 1263 02bd ec02 e8be 0182 9bbd
00000310: f544 1fbe 631d ec3e 2025 4ebe 7bd7 663d
00000320: a077 cd3c 1508 443f b858 ad3d c011 36bf
00000330: 1998 973c 94e3 83bf 5a9b 3e3b f2df 4d3f
00000340: 4615 90bf 3b41 2a3f 2577 f8bc 0c9a c0bc
00000350: 00c7 443f 3caa ed3f e7b1 3ebf 3982 30be
00000360: d6f2 2fbe 419a e5bd 1515 a33d 05b6 50bf
00000370: 6f8f 7a3d 6df8 1c3f 4528 77bb 10f3 9bbd
00000380: 6ca0 9dbf 0c95 e8bc 5ecd b3bc 2d24 2cbe
00000390: c3b2 b33d 902e 41bd 7dc9 833e 6ecd a63f
000003a0: 62db 43bd e84a 523f a8df 443e a2e3 593e
000003b0: f5d7 18be ba47 67be 485d 7b3c 1304 03be
000003c0: feed 68be 7579 1bbc 3403 e6bb 996a a3be
000003d0: 4d4c 823f 6914 bc3e 0be8 64bf 57ca 71bd
000003e0: bc9e 153f cc19 3b3f 7361 84bf bcf2 93be
000003f0: bee5 84be d429 f2be 853a ecbf aba1 b9bc

bias f4 [5]
-0.9629852 0.39957532 1.8039464 -0.35337937 -1.074663
00000000: 3386 76bf 2395 cc3e b7e7 e63f 24ee b4be
00000010: 8f8e 89bf
